node {
  name: "Placeholder"
  op: "Placeholder"
  attr {
    key: "dtype"
    value {
      type: DT_FLOAT
    }
  }
  attr {
    key: "shape"
    value {
      shape {
        dim {
          size: -1
        }
        dim {
          size: -1
        }
        dim {
          size: -1
        }
        dim {
          size: 3
        }
      }
    }
  }
}
node {
  name: "img_mean"
  op: "Const"
  attr {
    key: "dtype"
    value {
      type: DT_FLOAT
    }
  }
  attr {
    key: "value"
    value {
      tensor {
        dtype: DT_FLOAT
        tensor_shape {
          dim {
            size: 1
          }
          dim {
            size: 1
          }
          dim {
            size: 1
          }
          dim {
            size: 3
          }
        }
        tensor_content: ")\\\367B\331\216\351B\305\340\317B"
      }
    }
  }
}
node {
  name: "sub"
  op: "Sub"
  input: "Placeholder"
  input: "img_mean"
  attr {
    key: "T"
    value {
      type: DT_FLOAT
    }
  }
}
node {
  name: "resnet_v1_101/Pad/paddings"
  op: "Const"
  attr {
    key: "dtype"
    value {
      type: DT_INT32
    }
  }
  attr {
    key: "value"
    value {
      tensor {
        dtype: DT_INT32
        tensor_shape {
          dim {
            size: 4
          }
          dim {
            size: 2
          }
        }
        tensor_content: "…"
      }
    }
  }
}
node {
  name: "resnet_v1_101/Pad"
  op: "Pad"
  input: "sub"
  input: "resnet_v1_101/Pad/paddings"
  attr {
    key: "T"
    value {
      type: DT_FLOAT
    }
  }
  attr {
    key: "Tpaddings"
    value {
      type: DT_INT32
    }
  }
}
node {
  name: "resnet_v1_101/conv1/weights/Initializer/truncated_normal/shape"
  op: "Const"
  attr {
    key: "_class"
    value {
      list {
        s: "loc:@resnet_v1_101/conv1/weights"
      }
    }
  }
  attr {
    key: "dtype"
    value {
      type: DT_INT32
    }
  }
  attr {
    key: "value"
    value {
      tensor {
        dtype: DT_INT32
        tensor_shape {
          dim {
            size: 4
          }
        }
        tensor_content: "\007\000\000\000\007\000\000\000\003\000\000\000@\000\000\000"
      }
    }
  }
}
node {
  name: "resnet_v1_101/conv1/weights/Initializer/truncated_normal/mean"
  op: "Const"
  attr {
    key: "_class"
    value {
      list {
        s: "loc:@resnet_v1_101/conv1/weights"
      }
    }
  }
  attr {
    key: "dtype"
    value {
      type: DT_FLOAT
    }
  }
  attr {
    key: "value"
    value {
      tensor {
        dtype: DT_FLOAT
        tensor_shape {
        }
        float_val: 0.0
      }
    }
  }
}
node {
  name: "resnet_v1_101/conv1/weights/Initializer/truncated_normal/stddev"
  op: "Const"
  attr {
    key: "_class"
    value {
      list {
        s: "loc:@resnet_v1_101/conv1/weights"
      }
    }
  }
  attr {
    key: "dtype"
    value {
      type: DT_FLOAT
    }
  }
  attr {
    key: "value"
    value {
      tensor {
        dtype: DT_FLOAT
        tensor_shape {
        }
        float_val: 0.13299275934696198
      }
    }
  }
}
node {
  name: "resnet_v1_101/conv1/weights/Initializer/truncated_normal/TruncatedNormal"
  op: "TruncatedNormal"
  input: "resnet_v1_101/conv1/weights/Initializer/truncated_normal/shape"
  attr {
    key: "T"
    value {
      type: DT_INT32
    }
  }
  attr {
    key: "_class"
    value {
      list {
        s: "loc:@resnet_v1_101/conv1/weights"
      }
    }
  }
  attr {
    key: "dtype"
    value {
      type: DT_FLOAT
    }
  }
  attr {
    key: "seed"
    value {
      i: 0
    }
  }
  attr {
    key: "seed2"
    value {
      i: 0
    }
  }
}
node {
  name: "resnet_v1_101/conv1/weights/Initializer/truncated_normal/mul"
  op: "Mul"
  input: "resnet_v1_101/conv1/weights/Initializer/truncated_normal/TruncatedNormal"
  input: "resnet_v1_101/conv1/weights/Initializer/truncated_normal/stddev"
  attr {
    key: "T"
    value {
      type: DT_FLOAT
    }
  }
  attr {
    key: "_class"
    value {
      list {
        s: "loc:@resnet_v1_101/conv1/weights"
      }
    }
  }
}
node {
  name: "resnet_v1_101/conv1/weights/Initializer/truncated_normal"
  op: "Add"
  input: "resnet_v1_101/conv1/weights/Initializer/truncated_normal/mul"
  input: "resnet_v1_101/conv1/weights/Initializer/truncated_normal/mean"
  attr {
    key: "T"
    value {
      type: DT_FLOAT
    }
  }
  attr {
    key: "_class"
    value {
      list {
        s: "loc:@resnet_v1_101/conv1/weights"
      }
    }
  }
}
node {
  name: "resnet_v1_101/conv1/weights"
  op: "VariableV2"
  attr {
    key: "_class"
    value {
      list {
        s: "loc:@resnet_v1_101/conv1/weights"
      }
    }
  }
  attr {
    key: "container"
    value {
      s: ""
    }
  }
  attr {
    key: "dtype"
    value {
      type: DT_FLOAT
    }
  }
  attr {
    key: "shape"
    value {
      shape {
        dim {
          size: 7
        }
        dim {
          size: 7
        }
        dim {
          size: 3
        }
        dim {
          size: 64
        }
      }
    }
  }
  attr {
    key: "shared_name"
    value {
      s: ""
    }
  }
}
node {
  name: "resnet_v1_101/conv1/weights/Assign"
  op: "Assign"
  input: "resnet_v1_101/conv1/weights"
  input: "resnet_v1_101/conv1/weights/Initializer/truncated_normal"
  attr {
    key: "T"
    value {
      type: DT_FLOAT
    }
  }
  attr {
    key: "_class"
    value {
      list {
        s: "loc:@resnet_v1_101/conv1/weights"
      }
    }
  }
  attr {
    key: "use_locking"
    value {
      b: true
    }
  }
  attr {
    key: "validate_shape"
    value {
      b: true
    }
  }
}
node {
  name: "resnet_v1_101/conv1/weights/read"
  op: "Identity"
  input: "resnet_v1_101/conv1/weights"
  attr {
    key: "T"
    value {
      type: DT_FLOAT
    }
  }
  attr {
    key: "_class"
    value {
      list {
        s: "loc:@resnet_v1_101/conv1/weights"
      }
    }
  }
}
node {
  name: "resnet_v1_101/conv1/kernel/Regularizer/l2_regularizer/scale"
  op: "Const"
  attr {
    key: "dtype"
    value {
      type: DT_FLOAT
    }
  }
  attr {
    key: "value"
    value {
      tensor {
        dtype: DT_FLOAT
        tensor_shape {
        }
        float_val: 9.999999747378752e-05
      }
    }
  }
}
node {
  name: "resnet_v1_101/conv1/kernel/Regularizer/l2_regularizer/L2Loss"
  op: "L2Loss"
  input: "resnet_v1_101/conv1/weights/read"
  attr {
    key: "T"
    value {
      type: DT_FLOAT
    }
  }
}
node {
  name: "resnet_v1_101/conv1/kernel/Regularizer/l2_regularizer"
  op: "Mul"
  input: "resnet_v1_101/conv1/kernel/Regularizer/l2_regularizer/scale"
  input: "resnet_v1_101/conv1/kernel/Regularizer/l2_regularizer/L2Loss"
  attr {
    key: "T"
    value {
      type: DT_FLOAT
    }
  }
}
node {
  name: "resnet_v1_101/conv1/dilation_rate"
  op: "Const"
  attr {
    key: "dtype"
    value {
      type: DT_INT32
    }
  }
  attr {
    key: "value"
    value {
      tensor {
        dtype: DT_INT32
        tensor_shape {
          dim {
            size: 2
          }
        }
        tensor_content: "\001\000\000\000\001\000\000\000"
      }
    }
  }
}
node {
  name: "resnet_v1_101/conv1/Conv2D"
  op: "Conv2D"
  input: "resnet_v1_101/Pad"
  input: "resnet_v1_101/conv1/weights/read"
  attr {
    key: "T"
    value {
      type: DT_FLOAT
    }
  }
  attr {
    key: "data_format"
    value {
      s: "NHWC"
    }
  }
  attr {
    key: "dilations"
    value {
      list {
        i: 1
        i: 1
        i: 1
        i: 1
      }
    }
  }
  attr {
    key: "explicit_paddings"
    value {
      list {
      }
    }
  }
  attr {
    key: "padding"
    value {
      s: "VALID"
    }
  }
  attr {
    key: "strides"
    value {
      list {
        i: 1
        i: 2
        i: 2
        i: 1
      }
    }
  }
  attr {
    key: "use_cudnn_on_gpu"
    value {
      b: true
    }
  }
}
node {
  name: "resnet_v1_101/conv1/BatchNorm/gamma/Initializer/ones"
  op: "Const"
  attr {
    key: "_class"
    value {
      list {
        s: "loc:@resnet_v1_101/conv1/BatchNorm/gamma"
      }
    }
  }
  attr {
    key: "dtype"
    value {
      type: DT_FLOAT
    }
  }
  attr {
    key: "value"
    value {
      tensor {
        dtype: DT_FLOAT
        tensor_shape {
          dim {
            size: 64
          }
        }
        float_val: 1.0
      }
    }
  }
}
node {
  name: "resnet_v1_101/conv1/BatchNorm/gamma"
  op: "VariableV2"
  attr {
    key: "_class"
    value {
      list {
        s: "loc:@resnet_v1_101/conv1/BatchNorm/gamma"
      }
    }
  }
  attr {
    key: "container"
    value {
      s: ""
    }
  }
  attr {
    key: "dtype"
    value {
      type: DT_FLOAT
    }
  }
  attr {
    key: "shape"
    value {
      shape {
        dim {
          size: 64
        }
      }
    }
  }
  attr {
    key: "shared_name"
    value {
      s: ""
    }
  }
}
node {
  name: "resnet_v1_101/conv1/BatchNorm/gamma/Assign"
  op: "Assign"
  input: "resnet_v1_101/conv1/BatchNorm/gamma"
  input: "resnet_v1_101/conv1/BatchNorm/gamma/Initializer/ones"
  attr {
    key: "T"
    value {
      type: DT_FLOAT
    }
  }
  attr {
    key: "_class"
    value {
      list {
        s: "loc:@resnet_v1_101/conv1/BatchNorm/gamma"
      }
    }
  }
  attr {
    key: "use_locking"
    value {
      b: true
    }
  }
  attr {
    key: "validate_shape"
    value {
      b: true
    }
  }
}
node {
  name: "resnet_v1_101/conv1/BatchNorm/gamma/read"
  op: "Identity"
  input: "resnet_v1_101/conv1/BatchNorm/gamma"
  attr {
    key: "T"
    value {
      type: DT_FLOAT
    }
  }
  attr {
    key: "_class"
    value {
      list {
        s: "loc:@resnet_v1_101/conv1/BatchNorm/gamma"
      }
    }
  }
}
node {
  name: "resnet_v1_101/conv1/BatchNorm/beta/Initializer/zeros"
  op: "Const"
  attr {
    key: "_class"
    value {
      list {
        s: "loc:@resnet_v1_101/conv1/BatchNorm/beta"
      }
    }
  }
  attr {
    key: "dtype"
    value {
      type: DT_FLOAT
    }
  }
  attr {
    key: "value"
    value {
      tensor {
        dtype: DT_FLOAT
        tensor_shape {
          dim {
            size: 64
          }
        }
        float_val: 0.0
      }
    }
  }
}
node {
  name: "resnet_v1_101/conv1/BatchNorm/beta"
  op: "VariableV2"
  attr {
    key: "_class"
    value {
      list {
        s: "loc:@resnet_v1_101/conv1/BatchNorm/beta"
      }
    }
  }
  attr {
    key: "container"
    value {
      s: ""
    }
  }
  attr {
    key: "dtype"
    value {
      type: DT_FLOAT
    }
  }
  attr {
    key: "shape"
    value {
      shape {
        dim {
          size: 64
        }
      }
    }
  }
  attr {
    key: "shared_name"
    value {
      s: ""
    }
  }
}
node {
  name: "resnet_v1_101/conv1/BatchNorm/beta/Assign"
  op: "Assign"
  input: "resnet_v1_101/conv1/BatchNorm/beta"
  input: "resnet_v1_101/conv1/BatchNorm/beta/Initializer/zeros"
  attr {
    key: "T"
    value {
      type: DT_FLOAT
    }
  }
  attr {
    key: "_class"
    value {
      list {
        s: "loc:@resnet_v1_101/conv1/BatchNorm/beta"
      }
    }
  }
  attr {
    key: "use_locking"
    value {
      b: true
    }
  }
  attr {
    key: "validate_shape"
    value {
      b: true
    }
  }
}
node {
  name: "resnet_v1_101/conv1/BatchNorm/beta/read"
  op: "Identity"
  input: "resnet_v1_101/conv1/BatchNorm/beta"
  attr {
    key: "T"
    value {
      type: DT_FLOAT
    }
  }
  attr {
    key: "_class"
    value {
      list {
        s: "loc:@resnet_v1_101/conv1/BatchNorm/beta"
      }
    }
  }
}
node {
  name: "resnet_v1_101/conv1/BatchNorm/moving_mean/Initializer/zeros"
  op: "Const"
  attr {
    key: "_class"
    value {
      list {
        s: "loc:@resnet_v1_101/conv1/BatchNorm/moving_mean"
      }
    }
  }
  attr {
    key: "dtype"
    value {
      type: DT_FLOAT
    }
  }
  attr {
    key: "value"
    value {
      tensor {
        dtype: DT_FLOAT
        tensor_shape {
          dim {
            size: 64
          }
        }
        float_val: 0.0
      }
    }
  }
}
node {
  name: "resnet_v1_101/conv1/BatchNorm/moving_mean"
  op: "VariableV2"
  attr {
    key: "_class"
    value {
      list {
        s: "loc:@resnet_v1_101/conv1/BatchNorm/moving_mean"
      }
    }
  }
  attr {
    key: "container"
    value {
      s: ""
    }
  }
  attr {
    key: "dtype"
    value {
      type: DT_FLOAT
    }
  }
  attr {
    key: "shape"
    value {
      shape {
        dim {
          size: 64
        }
      }
    }
  }
  attr {
    key: "shared_name"
    value {
      s: ""
    }
  }
}
node {
  name: "resnet_v1_101/conv1/BatchNorm/moving_mean/Assign"
  op: "Assign"
  input: "resnet_v1_101/conv1/BatchNorm/moving_mean"
  input: "resnet_v1_101/conv1/BatchNorm/moving_mean/Initializer/zeros"
  attr {
    key: "T"
    value {
      type: DT_FLOAT
    }
  }
  attr {
    key: "_class"
    value {
      list {
        s: "loc:@resnet_v1_101/conv1/BatchNorm/moving_mean"
      }
    }
  }
  attr {
    key: "use_locking"
    value {
      b: true
    }
  }
  attr {
    key: "validate_shape"
    value {
      b: true
    }
  }
}
node {
  name: "resnet_v1_101/conv1/BatchNorm/moving_mean/read"
  op: "Identity"
  input: "resnet_v1_101/conv1/BatchNorm/moving_mean"
  attr {
    key: "T"
    value {
      type: DT_FLOAT
    }
  }
  attr {
    key: "_class"
    value {
      list {
        s: "loc:@resnet_v1_101/conv1/BatchNorm/moving_mean"
      }
    }
  }
}
node {
  name: "resnet_v1_101/conv1/BatchNorm/moving_variance/Initializer/ones"
  op: "Const"
  attr {
    key: "_class"
    value {
      list {
        s: "loc:@resnet_v1_101/conv1/BatchNorm/moving_variance"
      }
    }
  }
  attr {
    key: "dtype"
    value {
      type: DT_FLOAT
    }
  }
  attr {
    key: "value"
    value {
      tensor {
        dtype: DT_FLOAT
        tensor_shape {
          dim {
            size: 64
          }
        }
        float_val: 1.0
      }
    }
  }
}
node {
  name: "resnet_v1_101/conv1/BatchNorm/moving_variance"
  op: "VariableV2"
  attr {
    key: "_class"
    value {
      list {
        s: "loc:@resnet_v1_101/conv1/BatchNorm/moving_variance"
      }
    }
  }
  attr {
    key: "container"
    value {
      s: ""
    }
  }
  attr {
    key: "dtype"
    value {
      type: DT_FLOAT
    }
  }
  attr {
    key: "shape"
    value {
      shape {
        dim {
          size: 64
        }
      }
    }
  }
  attr {
    key: "shared_name"
    value {
      s: ""
    }
  }
}
node {
  name: "resnet_v1_101/conv1/BatchNorm/moving_variance/Assign"
  op: "Assign"
  input: "resnet_v1_101/conv1/BatchNorm/moving_variance"
  input: "resnet_v1_101/conv1/BatchNorm/moving_variance/Initializer/ones"
  attr {
    key: "T"
    value {
      type: DT_FLOAT
    }
  }
  attr {
    key: "_class"
    value {
      list {
        s: "loc:@resnet_v1_101/conv1/BatchNorm/moving_variance"
      }
    }
  }
  attr {
    key: "use_locking"
    value {
      b: true
    }
  }
  attr {
    key: "validate_shape"
    value {
      b: true
    }
  }
}
node {
  name: "resnet_v1_101/conv1/BatchNorm/moving_variance/read"
  op: "Identity"
  input: "resnet_v1_101/conv1/BatchNorm/moving_variance"
  attr {
    key: "T"
    value {
      type: DT_FLOAT
    }
  }
  attr {
    key: "_class"
    value {
      list {
        s: "loc:@resnet_v1_101/conv1/BatchNorm/moving_variance"
      }
    }
  }
}
node {
  name: "resnet_v1_101/conv1/BatchNorm/FusedBatchNormV3"
  op: "FusedBatchNormV3"
  input: "resnet_v1_101/conv1/Conv2D"
  input: "resnet_v1_101/conv1/BatchNorm/gamma/read"
  input: "resnet_v1_101/conv1/BatchNorm/beta/read"
  input: "resnet_v1_101/conv1/BatchNorm/moving_mean/read"
  input: "resnet_v1_101/conv1/BatchNorm/moving_variance/read"
  attr {
    key: "T"
    value {
      type: DT_FLOAT
    }
  }
  attr {
    key: "U"
    value {
      type: DT_FLOAT
    }
  }
  attr {
    key: "data_format"
    value {
      s: "NHWC"
    }
  }
  attr {
    key: "epsilon"
    value {
      f: 1.0009999641624745e-05
    }
  }
  attr {
    key: "is_training"
    value {
      b: false
    }
  }
}
node {
  name: "resnet_v1_101/conv1/BatchNorm/Const"
  op: "Const"
  attr {
    key: "dtype"
    value {
      type: DT_FLOAT
    }
  }
  attr {
    key: "value"
    value {
      tensor {
        dtype: DT_FLOAT
        tensor_shape {
        }
        float_val: 0.996999979019165
      }
    }
  }
}
node {
  name: "resnet_v1_101/conv1/Relu"
  op: "Relu"
  input: "resnet_v1_101/conv1/BatchNorm/FusedBatchNormV3"
  attr {
    key: "T"
    value {
      type: DT_FLOAT
    }
  }
}
node {
  name: "resnet_v1_101/pool1/MaxPool"
  op: "MaxPool"
  input: "resnet_v1_101/conv1/Relu"
  attr {
    key: "T"
    value {
      type: DT_FLOAT
    }
  }
  attr {
    key: "data_format"
    value {
      s: "NHWC"
    }
  }
  attr {
    key: "ksize"
    value {
      list {
        i: 1
        i: 3
        i: 3
        i: 1
      }
    }
  }
  attr {
    key: "padding"
    value {
      s: "SAME"
    }
  }
  attr {
    key: "strides"
    value {
      list {
        i: 1
        i: 2
        i: 2
        i: 1
      }
    }
  }
}
node {
  name: "resnet_v1_101/block1/unit_1/bottleneck_v1/shortcut/weights/Initializer/truncated_normal/shape"
  op: "Const"
  attr {
    key: "_class"
    value {
      list {
        s: "loc:@resnet_v1_101/block1/unit_1/bottleneck_v1/shortcut/weights"
      }
    }
  }
  attr {
    key: "dtype"
    value {
      type: DT_INT32
    }
  }
  attr {
    key: "value"
    value {
      tensor {
        dtype: DT_INT32
        tensor_shape {
          dim {
            size: 4
          }
        }
        tensor_content: "\001\000\000\000\001\000\000\000@\000\000\000\000\001\000\000"
      }
    }
  }
}
node {
  name: "resnet_v1_101/block1/unit_1/bottleneck_v1/shortcut/weights/Initializer/truncated_normal/mean"
  op: "Const"
  attr {
    key: "_class"
    value {
      list {
        s: "loc:@resnet_v1_101/block1/unit_1/bottleneck_v1/shortcut/weights"
      }
    }
  }
  attr {
    key: "dtype"
    value {
      type: DT_FLOAT
    }
  }
  attr {
    key: "value"
    value {
      tensor {
        dtype: DT_FLOAT
        tensor_shape {
        }
        float_val: 0.0
      }
    }
  }
}
node {
  name: "resnet_v1_101/block1/unit_1/bottleneck_v1/shortcut/weights/Initializer/truncated_normal/stddev"
  op: "Const"
  attr {
    key: "_class"
    value {
      list {
        s: "loc:@resnet_v1_101/block1/unit_1/bottleneck_v1/shortcut/weights"
      }
    }
  }
  attr {
    key: "dtype"
    value {
      type: DT_FLOAT
    }
  }
  attr {
    key: "value"
    value {
      tensor {
        dtype: DT_FLOAT
        tensor_shape {
        }
        float_val: 0.20155644416809082
      }
    }
  }
}
node {
  name: "resnet_v1_101/block1/unit_1/bottleneck_v1/shortcut/weights/Initializer/truncated_normal/TruncatedNormal"
  op: "TruncatedNormal"
  input: "resnet_v1_101/block1/unit_1/bottleneck_v1/shortcut/weights/Initializer/truncated_normal/shape"
  attr {
    key: "T"
    value {
      type: DT_INT32
    }
  }
  attr {
    key: "_class"
    value {
      list {
        s: "loc:@resnet_v1_101/block1/unit_1/bottleneck_v1/shortcut/weights"
      }
    }
  }
  attr {
    key: "dtype"
    value {
      type: DT_FLOAT
    }
  }
  attr {
    key: "seed"
    value {
      i: 0
    }
  }
  attr {
    key: "seed2"
    value {
      i: 0
    }
  }
}
node {
  name: "resnet_v1_101/block1/unit_1/bottleneck_v1/shortcut/weights/Initializer/truncated_normal/mul"
  op: "Mul"
  input: "resnet_v1_101/block1/unit_1/bottleneck_v1/shortcut/weights/Initializer/truncated_normal/TruncatedNormal"
  input: "resnet_v1_101/block1/unit_1/bottleneck_v1/shortcut/weights/Initializer/truncated_normal/stddev"
  attr {
    key: "T"
    value {
      type: DT_FLOAT
    }
  }
  attr {
    key: "_class"
    value {
      list {
        s: "loc:@resnet_v1_101/block1/unit_1/bottleneck_v1/shortcut/weights"
      }
    }
  }
}
node {
  name: "resnet_v1_101/block1/unit_1/bottleneck_v1/shortcut/weights/Initializer/truncated_normal"
  op: "Add"
  input: "resnet_v1_101/block1/unit_1/bottleneck_v1/shortcut/weights/Initializer/truncated_normal/mul"
  input: "resnet_v1_101/block1/unit_1/bottleneck_v1/shortcut/weights/Initializer/truncated_normal/mean"
  attr {
    key: "T"
    value {
      type: DT_FLOAT
    }
  }
  attr {
    key: "_class"
    value {
      list {
        s: "loc:@resnet_v1_101/block1/unit_1/bottleneck_v1/shortcut/weights"
      }
    }
  }
}
node {
  name: "resnet_v1_101/block1/unit_1/bottleneck_v1/shortcut/weights"
  op: "VariableV2"
  attr {
    key: "_class"
    value {
      list {
        s: "loc:@resnet_v1_101/block1/unit_1/bottleneck_v1/shortcut/weights"
      }
    }
  }
  attr {
    key: "container"
    value {
      s: ""
    }
  }
  attr {
    key: "dtype"
    value {
      type: DT_FLOAT
    }
  }
  attr {
    key: "shape"
    value {
      shape {
        dim {
          size: 1
        }
        dim {
          size: 1
        }
        dim {
          size: 64
        }
        dim {
          size: 256
        }
      }
    }
  }
  attr {
    key: "shared_name"
    value {
      s: ""
    }
  }
}
node {
  name: "resnet_v1_101/block1/unit_1/bottleneck_v1/shortcut/weights/Assign"
  op: "Assign"
  input: "resnet_v1_101/block1/unit_1/bottleneck_v1/shortcut/weights"
  input: "resnet_v1_101/block1/unit_1/bottleneck_v1/shortcut/weights/Initializer/truncated_normal"
  attr {
    key: "T"
    value {
      type: DT_FLOAT
    }
  }
  attr {
    key: "_class"
    value {
      list {
        s: "loc:@resnet_v1_101/block1/unit_1/bottleneck_v1/shortcut/weights"
      }
    }
  }
  attr {
    key: "use_locking"
    value {
      b: true
    }
  }
  attr {
    key: "validate_shape"
    value {
      b: true
    }
  }
}
node {
  name: "resnet_v1_101/block1/unit_1/bottleneck_v1/shortcut/weights/read"
  op: "Identity"
  input: "resnet_v1_101/block1/unit_1/bottleneck_v1/shortcut/weights"
  attr {
    key: "T"
    value {
      type: DT_FLOAT
    }
  }
  attr {
    key: "_class"
    value {
      list {
        s: "loc:@resnet_v1_101/block1/unit_1/bottleneck_v1/shortcut/weights"
      }
    }
  }
}
node {
  name: "resnet_v1_101/block1/unit_1/bottleneck_v1/shortcut/kernel/Regularizer/l2_regularizer/scale"
  op: "Const"
  attr {
    key: "dtype"
    value {
      type: DT_FLOAT
    }
  }
  attr {
    key: "value"
    value {
      tensor {
        dtype: DT_FLOAT
        tensor_shape {
        }
        float_val: 9.999999747378752e-05
      }
    }
  }
}
node {
  name: "resnet_v1_101/block1/unit_1/bottleneck_v1/shortcut/kernel/Regularizer/l2_regularizer/L2Loss"
  op: "L2Loss"
  input: "resnet_v1_101/block1/unit_1/bottleneck_v1/shortcut/weights/read"
  attr {
    key: "T"
    value {
      type: DT_FLOAT
    }
  }
}
node {
  name: "resnet_v1_101/block1/unit_1/bottleneck_v1/shortcut/kernel/Regularizer/l2_regularizer"
  op: "Mul"
  input: "resnet_v1_101/block1/unit_1/bottleneck_v1/shortcut/kernel/Regularizer/l2_regularizer/scale"
  input: "resnet_v1_101/block1/unit_1/bottleneck_v1/shortcut/kernel/Regularizer/l2_regularizer/L2Loss"
  attr {
    key: "T"
    value {
      type: DT_FLOAT
    }
  }
}
node {
  name: "resnet_v1_101/block1/unit_1/bottleneck_v1/shortcut/dilation_rate"
  op: "Const"
  attr {
    key: "dtype"
    value {
      type: DT_INT32
    }
  }
  attr {
    key: "value"
    value {
      tensor {
        dtype: DT_INT32
        tensor_shape {
          dim {
            size: 2
          }
        }
        tensor_content: "\001\000\000\000\001\000\000\000"
      }
    }
  }
}
node {
  name: "resnet_v1_101/block1/unit_1/bottleneck_v1/shortcut/Conv2D"
  op: "Conv2D"
  input: "resnet_v1_101/pool1/MaxPool"
  input: "resnet_v1_101/block1/unit_1/bottleneck_v1/shortcut/weights/read"
  attr {
    key: "T"
    value {
      type: DT_FLOAT
    }
  }
  attr {
    key: "data_format"
    value {
      s: "NHWC"
    }
  }
  attr {
    key: "dilations"
    value {
      list {
        i: 1
        i: 1
        i: 1
        i: 1
      }
    }
  }
  attr {
    key: "explicit_paddings"
    value {
      list {
      }
    }
  }
  attr {
    key: "padding"
    value {
      s: "SAME"
    }
  }
  attr {
    key: "strides"
    value {
      list {
        i: 1
        i: 1
        i: 1
        i: 1
      }
    }
  }
  attr {
    key: "use_cudnn_on_gpu"
    value {
      b: true
    }
  }
}
node {
  name: "resnet_v1_101/block1/unit_1/bottleneck_v1/shortcut/BatchNorm/gamma/Initializer/ones"
  op: "Const"
  attr {
    key: "_class"
    value {
      list {
        s: "loc:@resnet_v1_101/block1/unit_1/bottleneck_v1/shortcut/BatchNorm/gamma"
      }
    }
  }
  attr {
    key: "dtype"
    value {
      type: DT_FLOAT
    }
  }
  attr {
    key: "value"
    value {
      tensor {
        dtype: DT_FLOAT
        tensor_shape {
          dim {
            size: 256
          }
        }
        float_val: 1.0
      }
    }
  }
}
node {
  name: "resnet_v1_101/block1/unit_1/bottleneck_v1/shortcut/BatchNorm/gamma"
  op: "VariableV2"
  attr {
    key: "_class"
    value {
      list {
        s: "loc:@resnet_v1_101/block1/unit_1/bottleneck_v1/shortcut/BatchNorm/gamma"
      }
    }
  }
  attr {
    key: "container"
    value {
      s: ""
    }
  }
  attr {
    key: "dtype"
    value {
      type: DT_FLOAT
    }
  }
  attr {
    key: "shape"
    value {
      shape {
        dim {
          size: 256
        }
      }
    }
  }
  attr {
    key: "shared_name"
    value {
      s: ""
    }
  }
}
node {
  name: "resnet_v1_101/block1/unit_1/bottleneck_v1/shortcut/BatchNorm/gamma/Assign"
  op: "Assign"
  input: "resnet_v1_101/block1/unit_1/bottleneck_v1/shortcut/BatchNorm/gamma"
  input: "resnet_v1_101/block1/unit_1/bottleneck_v1/shortcut/BatchNorm/gamma/Initializer/ones"
  attr {
    key: "T"
    value {
      type: DT_FLOAT
    }
  }
  attr {
    key: "_class"
    value {
      list {
        s: "loc:@resnet_v1_101/block1/unit_1/bottleneck_v1/shortcut/BatchNorm/gamma"
      }
    }
  }
  attr {
    key: "use_locking"
    value {
      b: true
    }
  }
  attr {
    key: "validate_shape"
    value {
      b: true
    }
  }
}
node {
  name: "resnet_v1_101/block1/unit_1/bottleneck_v1/shortcut/BatchNorm/gamma/read"
  op: "Identity"
  input: "resnet_v1_101/block1/unit_1/bottleneck_v1/shortcut/BatchNorm/gamma"
  attr {
    key: "T"
    value {
      type: DT_FLOAT
    }
  }
  attr {
    key: "_class"
    value {
      list {
        s: "loc:@resnet_v1_101/block1/unit_1/bottleneck_v1/shortcut/BatchNorm/gamma"
      }
    }
  }
}
node {
  name: "resnet_v1_101/block1/unit_1/bottleneck_v1/shortcut/BatchNorm/beta/Initializer/zeros"
  op: "Const"
  attr {
    key: "_class"
    value {
      list {
        s: "loc:@resnet_v1_101/block1/unit_1/bottleneck_v1/shortcut/BatchNorm/beta"
      }
    }
  }
  attr {
    key: "dtype"
    value {
      type: DT_FLOAT
    }
  }
  attr {
    key: "value"
    value {
      tensor {
        dtype: DT_FLOAT
        tensor_shape {
          dim {
            size: 256
          }
        }
        float_val: 0.0
      }
    }
  }
}
node {
  name: "resnet_v1_101/block1/unit_1/bottleneck_v1/shortcut/BatchNorm/beta"
  op: "VariableV2"
  attr {
    key: "_class"
    value {
      list {
        s: "loc:@resnet_v1_101/block1/unit_1/bottleneck_v1/shortcut/BatchNorm/beta"
      }
    }
  }
  attr {
    key: "container"
    value {
      s: ""
    }
  }
  attr {
    key: "dtype"
    value {
      type: DT_FLOAT
    }
  }
  attr {
    key: "shape"
    value {
      shape {
        dim {
          size: 256
        }
      }
    }
  }
  attr {
    key: "shared_name"
    value {
      s: ""
    }
  }
}
node {
  name: "resnet_v1_101/block1/unit_1/bottleneck_v1/shortcut/BatchNorm/beta/Assign"
  op: "Assign"
  input: "resnet_v1_101/block1/unit_1/bottleneck_v1/shortcut/BatchNorm/beta"
  input: "resnet_v1_101/block1/unit_1/bottleneck_v1/shortcut/BatchNorm/beta/Initializer/zeros"
  attr {
    key: "T"
    value {
      type: DT_FLOAT
    }
  }
  attr {
    key: "_class"
    value {
      list {
        s: "loc:@resnet_v1_101/block1/unit_1/bottleneck_v1/shortcut/BatchNorm/beta"
      }
    }
  }
  attr {
    key: "use_locking"
    value {
      b: true
    }
  }
  attr {
    key: "validate_shape"
    value {
      b: true
    }
  }
}
node {
  name: "resnet_v1_101/block1/unit_1/bottleneck_v1/shortcut/BatchNorm/beta/read"
  op: "Identity"
  input: "resnet_v1_101/block1/unit_1/bottleneck_v1/shortcut/BatchNorm/beta"
  attr {
    key: "T"
    value {
      type: DT_FLOAT
    }
  }
  attr {
    key: "_class"
    value {
      list {
        s: "loc:@resnet_v1_101/block1/unit_1/bottleneck_v1/shortcut/BatchNorm/beta"
      }
    }
  }
}
node {
  name: "resnet_v1_101/block1/unit_1/bottleneck_v1/shortcut/BatchNorm/moving_mean/Initializer/zeros"
  op: "Const"
  attr {
    key: "_class"
    value {
      list {
        s: "loc:@resnet_v1_101/block1/unit_1/bottleneck_v1/shortcut/BatchNorm/moving_mean"
      }
    }
  }
  attr {
    key: "dtype"
    value {
      type: DT_FLOAT
    }
  }
  attr {
    key: "value"
    value {
      tensor {
        dtype: DT_FLOAT
        tensor_shape {
          dim {
            size: 256
          }
        }
        float_val: 0.0
      }
    }
  }
}
node {
  name: "resnet_v1_101/block1/unit_1/bottleneck_v1/shortcut/BatchNorm/moving_mean"
  op: "VariableV2"
  attr {
    key: "_class"
    value {
      list {
        s: "loc:@resnet_v1_101/block1/unit_1/bottleneck_v1/shortcut/BatchNorm/moving_mean"
      }
    }
  }
  attr {
    key: "container"
    value {
      s: ""
    }
  }
  attr {
    key: "dtype"
    value {
      type: DT_FLOAT
    }
  }
  attr {
    key: "shape"
    value {
      shape {
        dim {
          size: 256
        }
      }
    }
  }
  attr {
    key: "shared_name"
    value {
      s: ""
    }
  }
}
node {
  name: "resnet_v1_101/block1/unit_1/bottleneck_v1/shortcut/BatchNorm/moving_mean/Assign"
  op: "Assign"
  input: "resnet_v1_101/block1/unit_1/bottleneck_v1/shortcut/BatchNorm/moving_mean"
  input: "resnet_v1_101/block1/unit_1/bottleneck_v1/shortcut/BatchNorm/moving_mean/Initializer/zeros"
  attr {
    key: "T"
    value {
      type: DT_FLOAT
    }
  }
  attr {
    key: "_class"
    value {
      list {
        s: "loc:@resnet_v1_101/block1/unit_1/bottleneck_v1/shortcut/BatchNorm/moving_mean"
      }
    }
  }
  attr {
    key: "use_locking"
    value {
      b: true
    }
  }
  attr {
    key: "validate_shape"
    value {
      b: true
    }
  }
}
node {
  name: "resnet_v1_101/block1/unit_1/bottleneck_v1/shortcut/BatchNorm/moving_mean/read"
  op: "Identity"
  input: "resnet_v1_101/block1/unit_1/bottleneck_v1/shortcut/BatchNorm/moving_mean"
  attr {
    key: "T"
    value {
      type: DT_FLOAT
    }
  }
  attr {
    key: "_class"
    value {
      list {
        s: "loc:@resnet_v1_101/block1/unit_1/bottleneck_v1/shortcut/BatchNorm/moving_mean"
      }
    }
  }
}
node {
  name: "resnet_v1_101/block1/unit_1/bottleneck_v1/shortcut/BatchNorm/moving_variance/Initializer/ones"
  op: "Const"
  attr {
    key: "_class"
    value {
      list {
        s: "loc:@resnet_v1_101/block1/unit_1/bottleneck_v1/shortcut/BatchNorm/moving_variance"
      }
    }
  }
  attr {
    key: "dtype"
    value {
      type: DT_FLOAT
    }
  }
  attr {
    key: "value"
    value {
      tensor {
        dtype: DT_FLOAT
        tensor_shape {
          dim {
            size: 256
          }
        }
        float_val: 1.0
      }
    }
  }
}
node {
  name: "resnet_v1_101/block1/unit_1/bottleneck_v1/shortcut/BatchNorm/moving_variance"
  op: "VariableV2"
  attr {
    key: "_class"
    value {
      list {
        s: "loc:@resnet_v1_101/block1/unit_1/bottleneck_v1/shortcut/BatchNorm/moving_variance"
      }
    }
  }
  attr {
    key: "container"
    value {
      s: ""
    }
  }
  attr {
    key: "dtype"
    value {
      type: DT_FLOAT
    }
  }
  attr {
    key: "shape"
    value {
      shape {
        dim {
          size: 256
        }
      }
    }
  }
  attr {
    key: "shared_name"
    value {
      s: ""
    }
  }
}
node {
  name: "resnet_v1_101/block1/unit_1/bottleneck_v1/shortcut/BatchNorm/moving_variance/Assign"
  op: "Assign"
  input: "resnet_v1_101/block1/unit_1/bottleneck_v1/shortcut/BatchNorm/moving_variance"
  input: "resnet_v1_101/block1/unit_1/bottleneck_v1/shortcut/BatchNorm/moving_variance/Initializer/ones"
  attr {
    key: "T"
    value {
      type: DT_FLOAT
    }
  }
  attr {
    key: "_class"
    value {
      list {
        s: "loc:@resnet_v1_101/block1/unit_1/bottleneck_v1/shortcut/BatchNorm/moving_variance"
      }
    }
  }
  attr {
    key: "use_locking"
    value {
      b: true
    }
  }
  attr {
    key: "validate_shape"
    value {
      b: true
    }
  }
}
node {
  name: "resnet_v1_101/block1/unit_1/bottleneck_v1/shortcut/BatchNorm/moving_variance/read"
  op: "Identity"
  input: "resnet_v1_101/block1/unit_1/bottleneck_v1/shortcut/BatchNorm/moving_variance"
  attr {
    key: "T"
    value {
      type: DT_FLOAT
    }
  }
  attr {
    key: "_class"
    value {
      list {
        s: "loc:@resnet_v1_101/block1/unit_1/bottleneck_v1/shortcut/BatchNorm/moving_variance"
      }
    }
  }
}
node {
  name: "resnet_v1_101/block1/unit_1/bottleneck_v1/shortcut/BatchNorm/FusedBatchNormV3"
  op: "FusedBatchNormV3"
  input: "resnet_v1_101/block1/unit_1/bottleneck_v1/shortcut/Conv2D"
  input: "resnet_v1_101/block1/unit_1/bottleneck_v1/shortcut/BatchNorm/gamma/read"
  input: "resnet_v1_101/block1/unit_1/bottleneck_v1/shortcut/BatchNorm/beta/read"
  input: "resnet_v1_101/block1/unit_1/bottleneck_v1/shortcut/BatchNorm/moving_mean/read"
  input: "resnet_v1_101/block1/unit_1/bottleneck_v1/shortcut/BatchNorm/moving_variance/read"
  attr {
    key: "T"
    value {
      type: DT_FLOAT
    }
  }
  attr {
    key: "U"
    value {
      type: DT_FLOAT
    }
  }
  attr {
    key: "data_format"
    value {
      s: "NHWC"
    }
  }
  attr {
    key: "epsilon"
    value {
      f: 1.0009999641624745e-05
    }
  }
  attr {
    key: "is_training"
    value {
      b: false
    }
  }
}
node {
  name: "resnet_v1_101/block1/unit_1/bottleneck_v1/shortcut/BatchNorm/Const"
  op: "Const"
  attr {
    key: "dtype"
    value {
      type: DT_FLOAT
    }
  }
  attr {
    key: "value"
    value {
      tensor {
        dtype: DT_FLOAT
        tensor_shape {
        }
        float_val: 0.996999979019165
      }
    }
  }
}
node {
  name: "resnet_v1_101/block1/unit_1/bottleneck_v1/conv1/weights/Initializer/truncated_normal/shape"
  op: "Const"
  attr {
    key: "_class"
    value {
      list {
        s: "loc:@resnet_v1_101/block1/unit_1/bottleneck_v1/conv1/weights"
      }
    }
  }
  attr {
    key: "dtype"
    value {
      type: DT_INT32
    }
  }
  attr {
    key: "value"
    value {
      tensor {
        dtype: DT_INT32
        tensor_shape {
          dim {
            size: 4
          }
        }
        tensor_content: "\001\000\000\000\001\000\000\000@\000\000\000@\000\000\000"
      }
    }
  }
}
node {
  name: "resnet_v1_101/block1/unit_1/bottleneck_v1/conv1/weights/Initializer/truncated_normal/mean"
  op: "Const"
  attr {
    key: "_class"
    value {
      list {
        s: "loc:@resnet_v1_101/block1/unit_1/bottleneck_v1/conv1/weights"
      }
    }
  }
  attr {
    key: "dtype"
    value {
      type: DT_FLOAT
    }
  }
  attr {
    key: "value"
    value {
      tensor {
        dtype: DT_FLOAT
        tensor_shape {
        }
        float_val: 0.0
      }
    }
  }
}
node {
  name: "resnet_v1_101/block1/unit_1/bottleneck_v1/conv1/weights/Initializer/truncated_normal/stddev"
  op: "Const"
  attr {
    key: "_class"
    value {
      list {
        s: "loc:@resnet_v1_101/block1/unit_1/bottleneck_v1/conv1/weights"
      }
    }
  }
  attr {
    key: "dtype"
    value {
      type: DT_FLOAT
    }
  }
  attr {
    key: "value"
    value {
      tensor {
        dtype: DT_FLOAT
        tensor_shape {
        }
        float_val: 0.20155644416809082
      }
    }
  }
}
node {
  name: "resnet_v1_101/block1/unit_1/bottleneck_v1/conv1/weights/Initializer/truncated_normal/TruncatedNormal"
  op: "TruncatedNormal"
  input: "resnet_v1_101/block1/unit_1/bottleneck_v1/conv1/weights/Initializer/truncated_normal/shape"
  attr {
    key: "T"
    value {
      type: DT_INT32
    }
  }
  attr {
    key: "_class"
    value {
      list {
        s: "loc:@resnet_v1_101/block1/unit_1/bottleneck_v1/conv1/weights"
      }
    }
  }
  attr {
    key: "dtype"
    value {
      type: DT_FLOAT
    }
  }
  attr {
    key: "seed"
    value {
      i: 0
    }
  }
  attr {
    key: "seed2"
    value {
      i: 0
    }
  }
}
node {
  name: "resnet_v1_101/block1/unit_1/bottleneck_v1/conv1/weights/Initializer/truncated_normal/mul"
  op: "Mul"
  input: "resnet_v1_101/block1/unit_1/bottleneck_v1/conv1/weights/Initializer/truncated_normal/TruncatedNormal"
  input: "resnet_v1_101/block1/unit_1/bottleneck_v1/conv1/weights/Initializer/truncated_normal/stddev"
  attr {
    key: "T"
    value {
      type: DT_FLOAT
    }
  }
  attr {
    key: "_class"
    value {
      list {
        s: "loc:@resnet_v1_101/block1/unit_1/bottleneck_v1/conv1/weights"
      }
    }
  }
}
node {
  name: "resnet_v1_101/block1/unit_1/bottleneck_v1/conv1/weights/Initializer/truncated_normal"
  op: "Add"
  input: "resnet_v1_101/block1/unit_1/bottleneck_v1/conv1/weights/Initializer/truncated_normal/mul"
  input: "resnet_v1_101/block1/unit_1/bottleneck_v1/conv1/weights/Initializer/truncated_normal/mean"
  attr {
    key: "T"
    value {
      type: DT_FLOAT
    }
  }
  attr {
    key: "_class"
    value {
      list {
        s: "loc:@resnet_v1_101/block1/unit_1/bottleneck_v1/conv1/weights"
      }
    }
  }
}
node {
  name: "resnet_v1_101/block1/unit_1/bottleneck_v1/conv1/weights"
  op: "VariableV2"
  attr {
    key: "_class"
    value {
      list {
        s: "loc:@resnet_v1_101/block1/unit_1/bottleneck_v1/conv1/weights"
      }
    }
  }
  attr {
    key: "container"
    value {
      s: ""
    }
  }
  attr {
    key: "dtype"
    value {
      type: DT_FLOAT
    }
  }
  attr {
    key: "shape"
    value {
      shape {
        dim {
          size: 1
        }
        dim {
          size: 1
        }
        dim {
          size: 64
        }
        dim {
          size: 64
        }
      }
    }
  }
  attr {
    key: "shared_name"
    value {
      s: ""
    }
  }
}
node {
  name: "resnet_v1_101/block1/unit_1/bottleneck_v1/conv1/weights/Assign"
  op: "Assign"
  input: "resnet_v1_101/block1/unit_1/bottleneck_v1/conv1/weights"
  input: "resnet_v1_101/block1/unit_1/bottleneck_v1/conv1/weights/Initializer/truncated_normal"
  attr {
    key: "T"
    value {
      type: DT_FLOAT
    }
  }
  attr {
    key: "_class"
    value {
      list {
        s: "loc:@resnet_v1_101/block1/unit_1/bottleneck_v1/conv1/weights"
      }
    }
  }
  attr {
    key: "use_locking"
    value {
      b: true
    }
  }
  attr {
    key: "validate_shape"
    value {
      b: true
    }
  }
}
node {
  name: "resnet_v1_101/block1/unit_1/bottleneck_v1/conv1/weights/read"
  op: "Identity"
  input: "resnet_v1_101/block1/unit_1/bottleneck_v1/conv1/weights"
  attr {
    key: "T"
    value {
      type: DT_FLOAT
    }
  }
  attr {
    key: "_class"
    value {
      list {
        s: "loc:@resnet_v1_101/block1/unit_1/bottleneck_v1/conv1/weights"
      }
    }
  }
}
node {
  name: "resnet_v1_101/block1/unit_1/bottleneck_v1/conv1/kernel/Regularizer/l2_regularizer/scale"
  op: "Const"
  attr {
    key: "dtype"
    value {
      type: DT_FLOAT
    }
  }
  attr {
    key: "value"
    value {
      tensor {
        dtype: DT_FLOAT
        tensor_shape {
        }
        float_val: 9.999999747378752e-05
      }
    }
  }
}
node {
  name: "resnet_v1_101/block1/unit_1/bottleneck_v1/conv1/kernel/Regularizer/l2_regularizer/L2Loss"
  op: "L2Loss"
  input: "resnet_v1_101/block1/unit_1/bottleneck_v1/conv1/weights/read"
  attr {
    key: "T"
    value {
      type: DT_FLOAT
    }
  }
}
node {
  name: "resnet_v1_101/block1/unit_1/bottleneck_v1/conv1/kernel/Regularizer/l2_regularizer"
  op: "Mul"
  input: "resnet_v1_101/block1/unit_1/bottleneck_v1/conv1/kernel/Regularizer/l2_regularizer/scale"
  input: "resnet_v1_101/block1/unit_1/bottleneck_v1/conv1/kernel/Regularizer/l2_regularizer/L2Loss"
  attr {
    key: "T"
    value {
      type: DT_FLOAT
    }
  }
}
node {
  name: "resnet_v1_101/block1/unit_1/bottleneck_v1/conv1/dilation_rate"
  op: "Const"
  attr {
    key: "dtype"
    value {
      type: DT_INT32
    }
  }
  attr {
    key: "value"
    value {
      tensor {
        dtype: DT_INT32
        tensor_shape {
          dim {
            size: 2
          }
        }
        tensor_content: "\001\000\000\000\001\000\000\000"
      }
    }
  }
}
node {
  name: "resnet_v1_101/block1/unit_1/bottleneck_v1/conv1/Conv2D"
  op: "Conv2D"
  input: "resnet_v1_101/pool1/MaxPool"
  input: "resnet_v1_101/block1/unit_1/bottleneck_v1/conv1/weights/read"
  attr {
    key: "T"
    value {
      type: DT_FLOAT
    }
  }
  attr {
    key: "data_format"
    value {
      s: "NHWC"
    }
  }
  attr {
    key: "dilations"
    value {
      list {
        i: 1
        i: 1
        i: 1
        i: 1
      }
    }
  }
  attr {
    key: "explicit_paddings"
    value {
      list {
      }
    }
  }
  attr {
    key: "padding"
    value {
      s: "SAME"
    }
  }
  attr {
    key: "strides"
    value {
      list {
        i: 1
        i: 1
        i: 1
        i: 1
      }
    }
  }
  attr {
    key: "use_cudnn_on_gpu"
    value {
      b: true
    }
  }
}
node {
  name: "resnet_v1_101/block1/unit_1/bottleneck_v1/conv1/BatchNorm/gamma/Initializer/ones"
  op: "Const"
  attr {
    key: "_class"
    value {
      list {
        s: "loc:@resnet_v1_101/block1/unit_1/bottleneck_v1/conv1/BatchNorm/gamma"
      }
    }
  }
  attr {
    key: "dtype"
    value {
      type: DT_FLOAT
    }
  }
  attr {
    key: "value"
    value {
      tensor {
        dtype: DT_FLOAT
        tensor_shape {
          dim {
            size: 64
          }
        }
        float_val: 1.0
      }
    }
  }
}
node {
  name: "resnet_v1_101/block1/unit_1/bottleneck_v1/conv1/BatchNorm/gamma"
  op: "VariableV2"
  attr {
    key: "_class"
    value {
      list {
        s: "loc:@resnet_v1_101/block1/unit_1/bottleneck_v1/conv1/BatchNorm/gamma"
      }
    }
  }
  attr {
    key: "container"
    value {
      s: ""
    }
  }
  attr {
    key: "dtype"
    value {
      type: DT_FLOAT
    }
  }
  attr {
    key: "shape"
    value {
      shape {
        dim {
          size: 64
        }
      }
    }
  }
  attr {
    key: "shared_name"
    value {
      s: ""
    }
  }
}
node {
  name: "resnet_v1_101/block1/unit_1/bottleneck_v1/conv1/BatchNorm/gamma/Assign"
  op: "Assign"
  input: "resnet_v1_101/block1/unit_1/bottleneck_v1/conv1/BatchNorm/gamma"
  input: "resnet_v1_101/block1/unit_1/bottleneck_v1/conv1/BatchNorm/gamma/Initializer/ones"
  attr {
    key: "T"
    value {
      type: DT_FLOAT
    }
  }
  attr {
    key: "_class"
    value {
      list {
        s: "loc:@resnet_v1_101/block1/unit_1/bottleneck_v1/conv1/BatchNorm/gamma"
      }
    }
  }
  attr {
    key: "use_locking"
    value {
      b: true
    }
  }
  attr {
    key: "validate_shape"
    value {
      b: true
    }
  }
}
node {
  name: "resnet_v1_101/block1/unit_1/bottleneck_v1/conv1/BatchNorm/gamma/read"
  op: "Identity"
  input: "resnet_v1_101/block1/unit_1/bottleneck_v1/conv1/BatchNorm/gamma"
  attr {
    key: "T"
    value {
      type: DT_FLOAT
    }
  }
  attr {
    key: "_class"
    value {
      list {
        s: "loc:@resnet_v1_101/block1/unit_1/bottleneck_v1/conv1/BatchNorm/gamma"
      }
    }
  }
}
node {
  name: "resnet_v1_101/block1/unit_1/bottleneck_v1/conv1/BatchNorm/beta/Initializer/zeros"
  op: "Const"
  attr {
    key: "_class"
    value {
      list {
        s: "loc:@resnet_v1_101/block1/unit_1/bottleneck_v1/conv1/BatchNorm/beta"
      }
    }
  }
  attr {
    key: "dtype"
    value {
      type: DT_FLOAT
    }
  }
  attr {
    key: "value"
    value {
      tensor {
        dtype: DT_FLOAT
        tensor_shape {
          dim {
            size: 64
          }
        }
        float_val: 0.0
      }
    }
  }
}
node {
  name: "resnet_v1_101/block1/unit_1/bottleneck_v1/conv1/BatchNorm/beta"
  op: "VariableV2"
  attr {
    key: "_class"
    value {
      list {
        s: "loc:@resnet_v1_101/block1/unit_1/bottleneck_v1/conv1/BatchNorm/beta"
      }
    }
  }
  attr {
    key: "container"
    value {
      s: ""
    }
  }
  attr {
    key: "dtype"
    value {
      type: DT_FLOAT
    }
  }
  attr {
    key: "shape"
    value {
      shape {
        dim {
          size: 64
        }
      }
    }
  }
  attr {
    key: "shared_name"
    value {
      s: ""
    }
  }
}
node {
  name: "resnet_v1_101/block1/unit_1/bottleneck_v1/conv1/BatchNorm/beta/Assign"
  op: "Assign"
  input: "resnet_v1_101/block1/unit_1/bottleneck_v1/conv1/BatchNorm/beta"
  input: "resnet_v1_101/block1/unit_1/bottleneck_v1/conv1/BatchNorm/beta/Initializer/zeros"
  attr {
    key: "T"
    value {
      type: DT_FLOAT
    }
  }
  attr {
    key: "_class"
    value {
      list {
        s: "loc:@resnet_v1_101/block1/unit_1/bottleneck_v1/conv1/BatchNorm/beta"
      }
    }
  }
  attr {
    key: "use_locking"
    value {
      b: true
    }
  }
  attr {
    key: "validate_shape"
    value {
      b: true
    }
  }
}
node {
  name: "resnet_v1_101/block1/unit_1/bottleneck_v1/conv1/BatchNorm/beta/read"
  op: "Identity"
  input: "resnet_v1_101/block1/unit_1/bottleneck_v1/conv1/BatchNorm/beta"
  attr {
    key: "T"
    value {
      type: DT_FLOAT
    }
  }
  attr {
    key: "_class"
    value {
      list {
        s: "loc:@resnet_v1_101/block1/unit_1/bottleneck_v1/conv1/BatchNorm/beta"
      }
    }
  }
}
node {
  name: "resnet_v1_101/block1/unit_1/bottleneck_v1/conv1/BatchNorm/moving_mean/Initializer/zeros"
  op: "Const"
  attr {
    key: "_class"
    value {
      list {
        s: "loc:@resnet_v1_101/block1/unit_1/bottleneck_v1/conv1/BatchNorm/moving_mean"
      }
    }
  }
  attr {
    key: "dtype"
    value {
      type: DT_FLOAT
    }
  }
  attr {
    key: "value"
    value {
      tensor {
        dtype: DT_FLOAT
        tensor_shape {
          dim {
            size: 64
          }
        }
        float_val: 0.0
      }
    }
  }
}
node {
  name: "resnet_v1_101/block1/unit_1/bottleneck_v1/conv1/BatchNorm/moving_mean"
  op: "VariableV2"
  attr {
    key: "_class"
    value {
      list {
        s: "loc:@resnet_v1_101/block1/unit_1/bottleneck_v1/conv1/BatchNorm/moving_mean"
      }
    }
  }
  attr {
    key: "container"
    value {
      s: ""
    }
  }
  attr {
    key: "dtype"
    value {
      type: DT_FLOAT
    }
  }
  attr {
    key: "shape"
    value {
      shape {
        dim {
          size: 64
        }
      }
    }
  }
  attr {
    key: "shared_name"
    value {
      s: ""
    }
  }
}
node {
  name: "resnet_v1_101/block1/unit_1/bottleneck_v1/conv1/BatchNorm/moving_mean/Assign"
  op: "Assign"
  input: "resnet_v1_101/block1/unit_1/bottleneck_v1/conv1/BatchNorm/moving_mean"
  input: "resnet_v1_101/block1/unit_1/bottleneck_v1/conv1/BatchNorm/moving_mean/Initializer/zeros"
  attr {
    key: "T"
    value {
      type: DT_FLOAT
    }
  }
  attr {
    key: "_class"
    value {
      list {
        s: "loc:@resnet_v1_101/block1/unit_1/bottleneck_v1/conv1/BatchNorm/moving_mean"
      }
    }
  }
  attr {
    key: "use_locking"
    value {
      b: true
    }
  }
  attr {
    key: "validate_shape"
    value {
      b: true
    }
  }
}
node {
  name: "resnet_v1_101/block1/unit_1/bottleneck_v1/conv1/BatchNorm/moving_mean/read"
  op: "Identity"
  input: "resnet_v1_101/block1/unit_1/bottleneck_v1/conv1/BatchNorm/moving_mean"
  attr {
    key: "T"
    value {
      type: DT_FLOAT
    }
  }
  attr {
    key: "_class"
    value {
      list {
        s: "loc:@resnet_v1_101/block1/unit_1/bottleneck_v1/conv1/BatchNorm/moving_mean"
      }
    }
  }
}
node {
  name: "resnet_v1_101/block1/unit_1/bottleneck_v1/conv1/BatchNorm/moving_variance/Initializer/ones"
  op: "Const"
  attr {
    key: "_class"
    value {
      list {
        s: "loc:@resnet_v1_101/block1/unit_1/bottleneck_v1/conv1/BatchNorm/moving_variance"
      }
    }
  }
  attr {
    key: "dtype"
    value {
      type: DT_FLOAT
    }
  }
  attr {
    key: "value"
    value {
      tensor {
        dtype: DT_FLOAT
        tensor_shape {
          dim {
            size: 64
          }
        }
        float_val: 1.0
      }
    }
  }
}
node {
  name: "resnet_v1_101/block1/unit_1/bottleneck_v1/conv1/BatchNorm/moving_variance"
  op: "VariableV2"
  attr {
    key: "_class"
    value {
      list {
        s: "loc:@resnet_v1_101/block1/unit_1/bottleneck_v1/conv1/BatchNorm/moving_variance"
      }
    }
  }
  attr {
    key: "container"
    value {
      s: ""
    }
  }
  attr {
    key: "dtype"
    value {
      type: DT_FLOAT
    }
  }
  attr {
    key: "shape"
    value {
      shape {
        dim {
          size: 64
        }
      }
    }
  }
  attr {
    key: "shared_name"
    value {
      s: ""
    }
  }
}
node {
  name: "resnet_v1_101/block1/unit_1/bottleneck_v1/conv1/BatchNorm/moving_variance/Assign"
  op: "Assign"
  input: "resnet_v1_101/block1/unit_1/bottleneck_v1/conv1/BatchNorm/moving_variance"
  input: "resnet_v1_101/block1/unit_1/bottleneck_v1/conv1/BatchNorm/moving_variance/Initializer/ones"
  attr {
    key: "T"
    value {
      type: DT_FLOAT
    }
  }
  attr {
    key: "_class"
    value {
      list {
        s: "loc:@resnet_v1_101/block1/unit_1/bottleneck_v1/conv1/BatchNorm/moving_variance"
      }
    }
  }
  attr {
    key: "use_locking"
    value {
      b: true
    }
  }
  attr {
    key: "validate_shape"
    value {
      b: true
    }
  }
}
node {
  name: "resnet_v1_101/block1/unit_1/bottleneck_v1/conv1/BatchNorm/moving_variance/read"
  op: "Identity"
  input: "resnet_v1_101/block1/unit_1/bottleneck_v1/conv1/BatchNorm/moving_variance"
  attr {
    key: "T"
    value {
      type: DT_FLOAT
    }
  }
  attr {
    key: "_class"
    value {
      list {
        s: "loc:@resnet_v1_101/block1/unit_1/bottleneck_v1/conv1/BatchNorm/moving_variance"
      }
    }
  }
}
node {
  name: "resnet_v1_101/block1/unit_1/bottleneck_v1/conv1/BatchNorm/FusedBatchNormV3"
  op: "FusedBatchNormV3"
  input: "resnet_v1_101/block1/unit_1/bottleneck_v1/conv1/Conv2D"
  input: "resnet_v1_101/block1/unit_1/bottleneck_v1/conv1/BatchNorm/gamma/read"
  input: "resnet_v1_101/block1/unit_1/bottleneck_v1/conv1/BatchNorm/beta/read"
  input: "resnet_v1_101/block1/unit_1/bottleneck_v1/conv1/BatchNorm/moving_mean/read"
  input: "resnet_v1_101/block1/unit_1/bottleneck_v1/conv1/BatchNorm/moving_variance/read"
  attr {
    key: "T"
    value {
      type: DT_FLOAT
    }
  }
  attr {
    key: "U"
    value {
      type: DT_FLOAT
    }
  }
  attr {
    key: "data_format"
    value {
      s: "NHWC"
    }
  }
  attr {
    key: "epsilon"
    value {
      f: 1.0009999641624745e-05
    }
  }
  attr {
    key: "is_training"
    value {
      b: false
    }
  }
}
node {
  name: "resnet_v1_101/block1/unit_1/bottleneck_v1/conv1/BatchNorm/Const"
  op: "Const"
  attr {
    key: "dtype"
    value {
      type: DT_FLOAT
    }
  }
  attr {
    key: "value"
    value {
      tensor {
        dtype: DT_FLOAT
        tensor_shape {
        }
        float_val: 0.996999979019165
      }
    }
  }
}
node {
  name: "resnet_v1_101/block1/unit_1/bottleneck_v1/conv1/Relu"
  op: "Relu"
  input: "resnet_v1_101/block1/unit_1/bottleneck_v1/conv1/BatchNorm/FusedBatchNormV3"
  attr {
    key: "T"
    value {
      type: DT_FLOAT
    }
  }
}
node {
  name: "resnet_v1_101/block1/unit_1/bottleneck_v1/conv2/weights/Initializer/truncated_normal/shape"
  op: "Const"
  attr {
    key: "_class"
    value {
      list {
        s: "loc:@resnet_v1_101/block1/unit_1/bottleneck_v1/conv2/weights"
      }
    }
  }
  attr {
    key: "dtype"
    value {
      type: DT_INT32
    }
  }
  attr {
    key: "value"
    value {
      tensor {
        dtype: DT_INT32
        tensor_shape {
          dim {
            size: 4
          }
        }
        tensor_content: "\003\000\000\000\003\000\000\000@\000\000\000@\000\000\000"
      }
    }
  }
}
node {
  name: "resnet_v1_101/block1/unit_1/bottleneck_v1/conv2/weights/Initializer/truncated_normal/mean"
  op: "Const"
  attr {
    key: "_class"
    value {
      list {
        s: "loc:@resnet_v1_101/block1/unit_1/bottleneck_v1/conv2/weights"
      }
    }
  }
  attr {
    key: "dtype"
    value {
      type: DT_FLOAT
    }
  }
  attr {
    key: "value"
    value {
      tensor {
        dtype: DT_FLOAT
        tensor_shape {
        }
        float_val: 0.0
      }
    }
  }
}
node {
  name: "resnet_v1_101/block1/unit_1/bottleneck_v1/conv2/weights/Initializer/truncated_normal/stddev"
  op: "Const"
  attr {
    key: "_class"
    value {
      list {
        s: "loc:@resnet_v1_101/block1/unit_1/bottleneck_v1/conv2/weights"
      }
    }
  }
  attr {
    key: "dtype"
    value {
      type: DT_FLOAT
    }
  }
  attr {
    key: "value"
    value {
      tensor {
        dtype: DT_FLOAT
        tensor_shape {
        }
        float_val: 0.06718548387289047
      }
    }
  }
}
node {
  name: "resnet_v1_101/block1/unit_1/bottleneck_v1/conv2/weights/Initializer/truncated_normal/TruncatedNormal"
  op: "TruncatedNormal"
  input: "resnet_v1_101/block1/unit_1/bottleneck_v1/conv2/weights/Initializer/truncated_normal/shape"
  attr {
    key: "T"
    value {
      type: DT_INT32
    }
  }
  attr {
    key: "_class"
    value {
      list {
        s: "loc:@resnet_v1_101/block1/unit_1/bottleneck_v1/conv2/weights"
      }
    }
  }
  attr {
    key: "dtype"
    value {
      type: DT_FLOAT
    }
  }
  attr {
    key: "seed"
    value {
      i: 0
    }
  }
  attr {
    key: "seed2"
    value {
      i: 0
    }
  }
}
node {
  name: "resnet_v1_101/block1/unit_1/bottleneck_v1/conv2/weights/Initializer/truncated_normal/mul"
  op: "Mul"
  input: "resnet_v1_101/block1/unit_1/bottleneck_v1/conv2/weights/Initializer/truncated_normal/TruncatedNormal"
  input: "resnet_v1_101/block1/unit_1/bottleneck_v1/conv2/weights/Initializer/truncated_normal/stddev"
  attr {
    key: "T"
    value {
      type: DT_FLOAT
    }
  }
  attr {
    key: "_class"
    value {
      list {
        s: "loc:@resnet_v1_101/block1/unit_1/bottleneck_v1/conv2/weights"
      }
    }
  }
}
node {
  name: "resnet_v1_101/block1/unit_1/bottleneck_v1/conv2/weights/Initializer/truncated_normal"
  op: "Add"
  input: "resnet_v1_101/block1/unit_1/bottleneck_v1/conv2/weights/Initializer/truncated_normal/mul"
  input: "resnet_v1_101/block1/unit_1/bottleneck_v1/conv2/weights/Initializer/truncated_normal/mean"
  attr {
    key: "T"
    value {
      type: DT_FLOAT
    }
  }
  attr {
    key: "_class"
    value {
      list {
        s: "loc:@resnet_v1_101/block1/unit_1/bottleneck_v1/conv2/weights"
      }
    }
  }
}
node {
  name: "resnet_v1_101/block1/unit_1/bottleneck_v1/conv2/weights"
  op: "VariableV2"
  attr {
    key: "_class"
    value {
      list {
        s: "loc:@resnet_v1_101/block1/unit_1/bottleneck_v1/conv2/weights"
      }
    }
  }
  attr {
    key: "container"
    value {
      s: ""
    }
  }
  attr {
    key: "dtype"
    value {
      type: DT_FLOAT
    }
  }
  attr {
    key: "shape"
    value {
      shape {
        dim {
          size: 3
        }
        dim {
          size: 3
        }
        dim {
          size: 64
        }
        dim {
          size: 64
        }
      }
    }
  }
  attr {
    key: "shared_name"
    value {
      s: ""
    }
  }
}
node {
  name: "resnet_v1_101/block1/unit_1/bottleneck_v1/conv2/weights/Assign"
  op: "Assign"
  input: "resnet_v1_101/block1/unit_1/bottleneck_v1/conv2/weights"
  input: "resnet_v1_101/block1/unit_1/bottleneck_v1/conv2/weights/Initializer/truncated_normal"
  attr {
    key: "T"
    value {
      type: DT_FLOAT
    }
  }
  attr {
    key: "_class"
    value {
      list {
        s: "loc:@resnet_v1_101/block1/unit_1/bottleneck_v1/conv2/weights"
      }
    }
  }
  attr {
    key: "use_locking"
    value {
      b: true
    }
  }
  attr {
    key: "validate_shape"
    value {
      b: true
    }
  }
}
node {
  name: "resnet_v1_101/block1/unit_1/bottleneck_v1/conv2/weights/read"
  op: "Identity"
  input: "resnet_v1_101/block1/unit_1/bottleneck_v1/conv2/weights"
  attr {
    key: "T"
    value {
      type: DT_FLOAT
    }
  }
  attr {
    key: "_class"
    value {
      list {
        s: "loc:@resnet_v1_101/block1/unit_1/bottleneck_v1/conv2/weights"
      }
    }
  }
}
node {
  name: "resnet_v1_101/block1/unit_1/bottleneck_v1/conv2/kernel/Regularizer/l2_regularizer/scale"
  op: "Const"
  attr {
    key: "dtype"
    value {
      type: DT_FLOAT
    }
  }
  attr {
    key: "value"
    value {
      tensor {
        dtype: DT_FLOAT
        tensor_shape {
        }
        float_val: 9.999999747378752e-05
      }
    }
  }
}
node {
  name: "resnet_v1_101/block1/unit_1/bottleneck_v1/conv2/kernel/Regularizer/l2_regularizer/L2Loss"
  op: "L2Loss"
  input: "resnet_v1_101/block1/unit_1/bottleneck_v1/conv2/weights/read"
  attr {
    key: "T"
    value {
      type: DT_FLOAT
    }
  }
}
node {
  name: "resnet_v1_101/block1/unit_1/bottleneck_v1/conv2/kernel/Regularizer/l2_regularizer"
  op: "Mul"
  input: "resnet_v1_101/block1/unit_1/bottleneck_v1/conv2/kernel/Regularizer/l2_regularizer/scale"
  input: "resnet_v1_101/block1/unit_1/bottleneck_v1/conv2/kernel/Regularizer/l2_regularizer/L2Loss"
  attr {
    key: "T"
    value {
      type: DT_FLOAT
    }
  }
}
node {
  name: "resnet_v1_101/block1/unit_1/bottleneck_v1/conv2/dilation_rate"
  op: "Const"
  attr {
    key: "dtype"
    value {
      type: DT_INT32
    }
  }
  attr {
    key: "value"
    value {
      tensor {
        dtype: DT_INT32
        tensor_shape {
          dim {
            size: 2
          }
        }
        tensor_content: "\001\000\000\000\001\000\000\000"
      }
    }
  }
}
node {
  name: "resnet_v1_101/block1/unit_1/bottleneck_v1/conv2/Conv2D"
  op: "Conv2D"
  input: "resnet_v1_101/block1/unit_1/bottleneck_v1/conv1/Relu"
  input: "resnet_v1_101/block1/unit_1/bottleneck_v1/conv2/weights/read"
  attr {
    key: "T"
    value {
      type: DT_FLOAT
    }
  }
  attr {
    key: "data_format"
    value {
      s: "NHWC"
    }
  }
  attr {
    key: "dilations"
    value {
      list {
        i: 1
        i: 1
        i: 1
        i: 1
      }
    }
  }
  attr {
    key: "explicit_paddings"
    value {
      list {
      }
    }
  }
  attr {
    key: "padding"
    value {
      s: "SAME"
    }
  }
  attr {
    key: "strides"
    value {
      list {
        i: 1
        i: 1
        i: 1
        i: 1
      }
    }
  }
  attr {
    key: "use_cudnn_on_gpu"
    value {
      b: true
    }
  }
}
node {
  name: "resnet_v1_101/block1/unit_1/bottleneck_v1/conv2/BatchNorm/gamma/Initializer/ones"
  op: "Const"
  attr {
    key: "_class"
    value {
      list {
        s: "loc:@resnet_v1_101/block1/unit_1/bottleneck_v1/conv2/BatchNorm/gamma"
      }
    }
  }
  attr {
    key: "dtype"
    value {
      type: DT_FLOAT
    }
  }
  attr {
    key: "value"
    value {
      tensor {
        dtype: DT_FLOAT
        tensor_shape {
          dim {
            size: 64
          }
        }
        float_val: 1.0
      }
    }
  }
}
node {
  name: "resnet_v1_101/block1/unit_1/bottleneck_v1/conv2/BatchNorm/gamma"
  op: "VariableV2"
  attr {
    key: "_class"
    value {
      list {
        s: "loc:@resnet_v1_101/block1/unit_1/bottleneck_v1/conv2/BatchNorm/gamma"
      }
    }
  }
  attr {
    key: "container"
    value {
      s: ""
    }
  }
  attr {
    key: "dtype"
    value {
      type: DT_FLOAT
    }
  }
  attr {
    key: "shape"
    value {
      shape {
        dim {
          size: 64
        }
      }
    }
  }
  attr {
    key: "shared_name"
    value {
      s: ""
    }
  }
}
node {
  name: "resnet_v1_101/block1/unit_1/bottleneck_v1/conv2/BatchNorm/gamma/Assign"
  op: "Assign"
  input: "resnet_v1_101/block1/unit_1/bottleneck_v1/conv2/BatchNorm/gamma"
  input: "resnet_v1_101/block1/unit_1/bottleneck_v1/conv2/BatchNorm/gamma/Initializer/ones"
  attr {
    key: "T"
    value {
      type: DT_FLOAT
    }
  }
  attr {
    key: "_class"
    value {
      list {
        s: "loc:@resnet_v1_101/block1/unit_1/bottleneck_v1/conv2/BatchNorm/gamma"
      }
    }
  }
  attr {
    key: "use_locking"
    value {
      b: true
    }
  }
  attr {
    key: "validate_shape"
    value {
      b: true
    }
  }
}
node {
  name: "resnet_v1_101/block1/unit_1/bottleneck_v1/conv2/BatchNorm/gamma/read"
  op: "Identity"
  input: "resnet_v1_101/block1/unit_1/bottleneck_v1/conv2/BatchNorm/gamma"
  attr {
    key: "T"
    value {
      type: DT_FLOAT
    }
  }
  attr {
    key: "_class"
    value {
      list {
        s: "loc:@resnet_v1_101/block1/unit_1/bottleneck_v1/conv2/BatchNorm/gamma"
      }
    }
  }
}
node {
  name: "resnet_v1_101/block1/unit_1/bottleneck_v1/conv2/BatchNorm/beta/Initializer/zeros"
  op: "Const"
  attr {
    key: "_class"
    value {
      list {
        s: "loc:@resnet_v1_101/block1/unit_1/bottleneck_v1/conv2/BatchNorm/beta"
      }
    }
  }
  attr {
    key: "dtype"
    value {
      type: DT_FLOAT
    }
  }
  attr {
    key: "value"
    value {
      tensor {
        dtype: DT_FLOAT
        tensor_shape {
          dim {
            size: 64
          }
        }
        float_val: 0.0
      }
    }
  }
}
node {
  name: "resnet_v1_101/block1/unit_1/bottleneck_v1/conv2/BatchNorm/beta"
  op: "VariableV2"
  attr {
    key: "_class"
    value {
      list {
        s: "loc:@resnet_v1_101/block1/unit_1/bottleneck_v1/conv2/BatchNorm/beta"
      }
    }
  }
  attr {
    key: "container"
    value {
      s: ""
    }
  }
  attr {
    key: "dtype"
    value {
      type: DT_FLOAT
    }
  }
  attr {
    key: "shape"
    value {
      shape {
        dim {
          size: 64
        }
      }
    }
  }
  attr {
    key: "shared_name"
    value {
      s: ""
    }
  }
}
node {
  name: "resnet_v1_101/block1/unit_1/bottleneck_v1/conv2/BatchNorm/beta/Assign"
  op: "Assign"
  input: "resnet_v1_101/block1/unit_1/bottleneck_v1/conv2/BatchNorm/beta"
  input: "resnet_v1_101/block1/unit_1/bottleneck_v1/conv2/BatchNorm/beta/Initializer/zeros"
  attr {
    key: "T"
    value {
      type: DT_FLOAT
    }
  }
  attr {
    key: "_class"
    value {
      list {
        s: "loc:@resnet_v1_101/block1/unit_1/bottleneck_v1/conv2/BatchNorm/beta"
      }
    }
  }
  attr {
    key: "use_locking"
    value {
      b: true
    }
  }
  attr {
    key: "validate_shape"
    value {
      b: true
    }
  }
}
node {
  name: "resnet_v1_101/block1/unit_1/bottleneck_v1/conv2/BatchNorm/beta/read"
  op: "Identity"
  input: "resnet_v1_101/block1/unit_1/bottleneck_v1/conv2/BatchNorm/beta"
  attr {
    key: "T"
    value {
      type: DT_FLOAT
    }
  }
  attr {
    key: "_class"
    value {
      list {
        s: "loc:@resnet_v1_101/block1/unit_1/bottleneck_v1/conv2/BatchNorm/beta"
      }
    }
  }
}
node {
  name: "resnet_v1_101/block1/unit_1/bottleneck_v1/conv2/BatchNorm/moving_mean/Initializer/zeros"
  op: "Const"
  attr {
    key: "_class"
    value {
      list {
        s: "loc:@resnet_v1_101/block1/unit_1/bottleneck_v1/conv2/BatchNorm/moving_mean"
      }
    }
  }
  attr {
    key: "dtype"
    value {
      type: DT_FLOAT
    }
  }
  attr {
    key: "value"
    value {
      tensor {
        dtype: DT_FLOAT
        tensor_shape {
          dim {
            size: 64
          }
        }
        float_val: 0.0
      }
    }
  }
}
node {
  name: "resnet_v1_101/block1/unit_1/bottleneck_v1/conv2/BatchNorm/moving_mean"
  op: "VariableV2"
  attr {
    key: "_class"
    value {
      list {
        s: "loc:@resnet_v1_101/block1/unit_1/bottleneck_v1/conv2/BatchNorm/moving_mean"
      }
    }
  }
  attr {
    key: "container"
    value {
      s: ""
    }
  }
  attr {
    key: "dtype"
    value {
      type: DT_FLOAT
    }
  }
  attr {
    key: "shape"
    value {
      shape {
        dim {
          size: 64
        }
      }
    }
  }
  attr {
    key: "shared_name"
    value {
      s: ""
    }
  }
}
node {
  name: "resnet_v1_101/block1/unit_1/bottleneck_v1/conv2/BatchNorm/moving_mean/Assign"
  op: "Assign"
  input: "resnet_v1_101/block1/unit_1/bottleneck_v1/conv2/BatchNorm/moving_mean"
  input: "resnet_v1_101/block1/unit_1/bottleneck_v1/conv2/BatchNorm/moving_mean/Initializer/zeros"
  attr {
    key: "T"
    value {
      type: DT_FLOAT
    }
  }
  attr {
    key: "_class"
    value {
      list {
        s: "loc:@resnet_v1_101/block1/unit_1/bottleneck_v1/conv2/BatchNorm/moving_mean"
      }
    }
  }
  attr {
    key: "use_locking"
    value {
      b: true
    }
  }
  attr {
    key: "validate_shape"
    value {
      b: true
    }
  }
}
node {
  name: "resnet_v1_101/block1/unit_1/bottleneck_v1/conv2/BatchNorm/moving_mean/read"
  op: "Identity"
  input: "resnet_v1_101/block1/unit_1/bottleneck_v1/conv2/BatchNorm/moving_mean"
  attr {
    key: "T"
    value {
      type: DT_FLOAT
    }
  }
  attr {
    key: "_class"
    value {
      list {
        s: "loc:@resnet_v1_101/block1/unit_1/bottleneck_v1/conv2/BatchNorm/moving_mean"
      }
    }
  }
}
node {
  name: "resnet_v1_101/block1/unit_1/bottleneck_v1/conv2/BatchNorm/moving_variance/Initializer/ones"
  op: "Const"
  attr {
    key: "_class"
    value {
      list {
        s: "loc:@resnet_v1_101/block1/unit_1/bottleneck_v1/conv2/BatchNorm/moving_variance"
      }
    }
  }
  attr {
    key: "dtype"
    value {
      type: DT_FLOAT
    }
  }
  attr {
    key: "value"
    value {
      tensor {
        dtype: DT_FLOAT
        tensor_shape {
          dim {
            size: 64
          }
        }
        float_val: 1.0
      }
    }
  }
}
node {
  name: "resnet_v1_101/block1/unit_1/bottleneck_v1/conv2/BatchNorm/moving_variance"
  op: "VariableV2"
  attr {
    key: "_class"
    value {
      list {
        s: "loc:@resnet_v1_101/block1/unit_1/bottleneck_v1/conv2/BatchNorm/moving_variance"
      }
    }
  }
  attr {
    key: "container"
    value {
      s: ""
    }
  }
  attr {
    key: "dtype"
    value {
      type: DT_FLOAT
    }
  }
  attr {
    key: "shape"
    value {
      shape {
        dim {
          size: 64
        }
      }
    }
  }
  attr {
    key: "shared_name"
    value {
      s: ""
    }
  }
}
node {
  name: "resnet_v1_101/block1/unit_1/bottleneck_v1/conv2/BatchNorm/moving_variance/Assign"
  op: "Assign"
  input: "resnet_v1_101/block1/unit_1/bottleneck_v1/conv2/BatchNorm/moving_variance"
  input: "resnet_v1_101/block1/unit_1/bottleneck_v1/conv2/BatchNorm/moving_variance/Initializer/ones"
  attr {
    key: "T"
    value {
      type: DT_FLOAT
    }
  }
  attr {
    key: "_class"
    value {
      list {
        s: "loc:@resnet_v1_101/block1/unit_1/bottleneck_v1/conv2/BatchNorm/moving_variance"
      }
    }
  }
  attr {
    key: "use_locking"
    value {
      b: true
    }
  }
  attr {
    key: "validate_shape"
    value {
      b: true
    }
  }
}
node {
  name: "resnet_v1_101/block1/unit_1/bottleneck_v1/conv2/BatchNorm/moving_variance/read"
  op: "Identity"
  input: "resnet_v1_101/block1/unit_1/bottleneck_v1/conv2/BatchNorm/moving_variance"
  attr {
    key: "T"
    value {
      type: DT_FLOAT
    }
  }
  attr {
    key: "_class"
    value {
      list {
        s: "loc:@resnet_v1_101/block1/unit_1/bottleneck_v1/conv2/BatchNorm/moving_variance"
      }
    }
  }
}
node {
  name: "resnet_v1_101/block1/unit_1/bottleneck_v1/conv2/BatchNorm/FusedBatchNormV3"
  op: "FusedBatchNormV3"
  input: "resnet_v1_101/block1/unit_1/bottleneck_v1/conv2/Conv2D"
  input: "resnet_v1_101/block1/unit_1/bottleneck_v1/conv2/BatchNorm/gamma/read"
  input: "resnet_v1_101/block1/unit_1/bottleneck_v1/conv2/BatchNorm/beta/read"
  input: "resnet_v1_101/block1/unit_1/bottleneck_v1/conv2/BatchNorm/moving_mean/read"
  input: "resnet_v1_101/block1/unit_1/bottleneck_v1/conv2/BatchNorm/moving_variance/read"
  attr {
    key: "T"
    value {
      type: DT_FLOAT
    }
  }
  attr {
    key: "U"
    value {
      type: DT_FLOAT
    }
  }
  attr {
    key: "data_format"
    value {
      s: "NHWC"
    }
  }
  attr {
    key: "epsilon"
    value {
      f: 1.0009999641624745e-05
    }
  }
  attr {
    key: "is_training"
    value {
      b: false
    }
  }
}
node {
  name: "resnet_v1_101/block1/unit_1/bottleneck_v1/conv2/BatchNorm/Const"
  op: "Const"
  attr {
    key: "dtype"
    value {
      type: DT_FLOAT
    }
  }
  attr {
    key: "value"
    value {
      tensor {
        dtype: DT_FLOAT
        tensor_shape {
        }
        float_val: 0.996999979019165
      }
    }
  }
}
node {
  name: "resnet_v1_101/block1/unit_1/bottleneck_v1/conv2/Relu"
  op: "Relu"
  input: "resnet_v1_101/block1/unit_1/bottleneck_v1/conv2/BatchNorm/FusedBatchNormV3"
  attr {
    key: "T"
    value {
      type: DT_FLOAT
    }
  }
}
node {
  name: "resnet_v1_101/block1/unit_1/bottleneck_v1/conv3/weights/Initializer/truncated_normal/shape"
  op: "Const"
  attr {
    key: "_class"
    value {
      list {
        s: "loc:@resnet_v1_101/block1/unit_1/bottleneck_v1/conv3/weights"
      }
    }
  }
  attr {
    key: "dtype"
    value {
      type: DT_INT32
    }
  }
  attr {
    key: "value"
    value {
      tensor {
        dtype: DT_INT32
        tensor_shape {
          dim {
            size: 4
          }
        }
        tensor_content: "\001\000\000\000\001\000\000\000@\000\000\000\000\001\000\000"
      }
    }
  }
}
node {
  name: "resnet_v1_101/block1/unit_1/bottleneck_v1/conv3/weights/Initializer/truncated_normal/mean"
  op: "Const"
  attr {
    key: "_class"
    value {
      list {
        s: "loc:@resnet_v1_101/block1/unit_1/bottleneck_v1/conv3/weights"
      }
    }
  }
  attr {
    key: "dtype"
    value {
      type: DT_FLOAT
    }
  }
  attr {
    key: "value"
    value {
      tensor {
        dtype: DT_FLOAT
        tensor_shape {
        }
        float_val: 0.0
      }
    }
  }
}
node {
  name: "resnet_v1_101/block1/unit_1/bottleneck_v1/conv3/weights/Initializer/truncated_normal/stddev"
  op: "Const"
  attr {
    key: "_class"
    value {
      list {
        s: "loc:@resnet_v1_101/block1/unit_1/bottleneck_v1/conv3/weights"
      }
    }
  }
  attr {
    key: "dtype"
    value {
      type: DT_FLOAT
    }
  }
  attr {
    key: "value"
    value {
      tensor {
        dtype: DT_FLOAT
        tensor_shape {
        }
        float_val: 0.20155644416809082
      }
    }
  }
}
node {
  name: "resnet_v1_101/block1/unit_1/bottleneck_v1/conv3/weights/Initializer/truncated_normal/TruncatedNormal"
  op: "TruncatedNormal"
  input: "resnet_v1_101/block1/unit_1/bottleneck_v1/conv3/weights/Initializer/truncated_normal/shape"
  attr {
    key: "T"
    value {
      type: DT_INT32
    }
  }
  attr {
    key: "_class"
    value {
      list {
        s: "loc:@resnet_v1_101/block1/unit_1/bottleneck_v1/conv3/weights"
      }
    }
  }
  attr {
    key: "dtype"
    value {
      type: DT_FLOAT
    }
  }
  attr {
    key: "seed"
    value {
      i: 0
    }
  }
  attr {
    key: "seed2"
    value {
      i: 0
    }
  }
}
node {
  name: "resnet_v1_101/block1/unit_1/bottleneck_v1/conv3/weights/Initializer/truncated_normal/mul"
  op: "Mul"
  input: "resnet_v1_101/block1/unit_1/bottleneck_v1/conv3/weights/Initializer/truncated_normal/TruncatedNormal"
  input: "resnet_v1_101/block1/unit_1/bottleneck_v1/conv3/weights/Initializer/truncated_normal/stddev"
  attr {
    key: "T"
    value {
      type: DT_FLOAT
    }
  }
  attr {
    key: "_class"
    value {
      list {
        s: "loc:@resnet_v1_101/block1/unit_1/bottleneck_v1/conv3/weights"
      }
    }
  }
}
node {
  name: "resnet_v1_101/block1/unit_1/bottleneck_v1/conv3/weights/Initializer/truncated_normal"
  op: "Add"
  input: "resnet_v1_101/block1/unit_1/bottleneck_v1/conv3/weights/Initializer/truncated_normal/mul"
  input: "resnet_v1_101/block1/unit_1/bottleneck_v1/conv3/weights/Initializer/truncated_normal/mean"
  attr {
    key: "T"
    value {
      type: DT_FLOAT
    }
  }
  attr {
    key: "_class"
    value {
      list {
        s: "loc:@resnet_v1_101/block1/unit_1/bottleneck_v1/conv3/weights"
      }
    }
  }
}
node {
  name: "resnet_v1_101/block1/unit_1/bottleneck_v1/conv3/weights"
  op: "VariableV2"
  attr {
    key: "_class"
    value {
      list {
        s: "loc:@resnet_v1_101/block1/unit_1/bottleneck_v1/conv3/weights"
      }
    }
  }
  attr {
    key: "container"
    value {
      s: ""
    }
  }
  attr {
    key: "dtype"
    value {
      type: DT_FLOAT
    }
  }
  attr {
    key: "shape"
    value {
      shape {
        dim {
          size: 1
        }
        dim {
          size: 1
        }
        dim {
          size: 64
        }
        dim {
          size: 256
        }
      }
    }
  }
  attr {
    key: "shared_name"
    value {
      s: ""
    }
  }
}
node {
  name: "resnet_v1_101/block1/unit_1/bottleneck_v1/conv3/weights/Assign"
  op: "Assign"
  input: "resnet_v1_101/block1/unit_1/bottleneck_v1/conv3/weights"
  input: "resnet_v1_101/block1/unit_1/bottleneck_v1/conv3/weights/Initializer/truncated_normal"
  attr {
    key: "T"
    value {
      type: DT_FLOAT
    }
  }
  attr {
    key: "_class"
    value {
      list {
        s: "loc:@resnet_v1_101/block1/unit_1/bottleneck_v1/conv3/weights"
      }
    }
  }
  attr {
    key: "use_locking"
    value {
      b: true
    }
  }
  attr {
    key: "validate_shape"
    value {
      b: true
    }
  }
}
node {
  name: "resnet_v1_101/block1/unit_1/bottleneck_v1/conv3/weights/read"
  op: "Identity"
  input: "resnet_v1_101/block1/unit_1/bottleneck_v1/conv3/weights"
  attr {
    key: "T"
    value {
      type: DT_FLOAT
    }
  }
  attr {
    key: "_class"
    value {
      list {
        s: "loc:@resnet_v1_101/block1/unit_1/bottleneck_v1/conv3/weights"
      }
    }
  }
}
node {
  name: "resnet_v1_101/block1/unit_1/bottleneck_v1/conv3/kernel/Regularizer/l2_regularizer/scale"
  op: "Const"
  attr {
    key: "dtype"
    value {
      type: DT_FLOAT
    }
  }
  attr {
    key: "value"
    value {
      tensor {
        dtype: DT_FLOAT
        tensor_shape {
        }
        float_val: 9.999999747378752e-05
      }
    }
  }
}
node {
  name: "resnet_v1_101/block1/unit_1/bottleneck_v1/conv3/kernel/Regularizer/l2_regularizer/L2Loss"
  op: "L2Loss"
  input: "resnet_v1_101/block1/unit_1/bottleneck_v1/conv3/weights/read"
  attr {
    key: "T"
    value {
      type: DT_FLOAT
    }
  }
}
node {
  name: "resnet_v1_101/block1/unit_1/bottleneck_v1/conv3/kernel/Regularizer/l2_regularizer"
  op: "Mul"
  input: "resnet_v1_101/block1/unit_1/bottleneck_v1/conv3/kernel/Regularizer/l2_regularizer/scale"
  input: "resnet_v1_101/block1/unit_1/bottleneck_v1/conv3/kernel/Regularizer/l2_regularizer/L2Loss"
  attr {
    key: "T"
    value {
      type: DT_FLOAT
    }
  }
}
node {
  name: "resnet_v1_101/block1/unit_1/bottleneck_v1/conv3/dilation_rate"
  op: "Const"
  attr {
    key: "dtype"
    value {
      type: DT_INT32
    }
  }
  attr {
    key: "value"
    value {
      tensor {
        dtype: DT_INT32
        tensor_shape {
          dim {
            size: 2
          }
        }
        tensor_content: "\001\000\000\000\001\000\000\000"
      }
    }
  }
}
node {
  name: "resnet_v1_101/block1/unit_1/bottleneck_v1/conv3/Conv2D"
  op: "Conv2D"
  input: "resnet_v1_101/block1/unit_1/bottleneck_v1/conv2/Relu"
  input: "resnet_v1_101/block1/unit_1/bottleneck_v1/conv3/weights/read"
  attr {
    key: "T"
    value {
      type: DT_FLOAT
    }
  }
  attr {
    key: "data_format"
    value {
      s: "NHWC"
    }
  }
  attr {
    key: "dilations"
    value {
      list {
        i: 1
        i: 1
        i: 1
        i: 1
      }
    }
  }
  attr {
    key: "explicit_paddings"
    value {
      list {
      }
    }
  }
  attr {
    key: "padding"
    value {
      s: "SAME"
    }
  }
  attr {
    key: "strides"
    value {
      list {
        i: 1
        i: 1
        i: 1
        i: 1
      }
    }
  }
  attr {
    key: "use_cudnn_on_gpu"
    value {
      b: true
    }
  }
}
node {
  name: "resnet_v1_101/block1/unit_1/bottleneck_v1/conv3/BatchNorm/gamma/Initializer/ones"
  op: "Const"
  attr {
    key: "_class"
    value {
      list {
        s: "loc:@resnet_v1_101/block1/unit_1/bottleneck_v1/conv3/BatchNorm/gamma"
      }
    }
  }
  attr {
    key: "dtype"
    value {
      type: DT_FLOAT
    }
  }
  attr {
    key: "value"
    value {
      tensor {
        dtype: DT_FLOAT
        tensor_shape {
          dim {
            size: 256
          }
        }
        float_val: 1.0
      }
    }
  }
}
node {
  name: "resnet_v1_101/block1/unit_1/bottleneck_v1/conv3/BatchNorm/gamma"
  op: "VariableV2"
  attr {
    key: "_class"
    value {
      list {
        s: "loc:@resnet_v1_101/block1/unit_1/bottleneck_v1/conv3/BatchNorm/gamma"
      }
    }
  }
  attr {
    key: "container"
    value {
      s: ""
    }
  }
  attr {
    key: "dtype"
    value {
      type: DT_FLOAT
    }
  }
  attr {
    key: "shape"
    value {
      shape {
        dim {
          size: 256
        }
      }
    }
  }
  attr {
    key: "shared_name"
    value {
      s: ""
    }
  }
}
node {
  name: "resnet_v1_101/block1/unit_1/bottleneck_v1/conv3/BatchNorm/gamma/Assign"
  op: "Assign"
  input: "resnet_v1_101/block1/unit_1/bottleneck_v1/conv3/BatchNorm/gamma"
  input: "resnet_v1_101/block1/unit_1/bottleneck_v1/conv3/BatchNorm/gamma/Initializer/ones"
  attr {
    key: "T"
    value {
      type: DT_FLOAT
    }
  }
  attr {
    key: "_class"
    value {
      list {
        s: "loc:@resnet_v1_101/block1/unit_1/bottleneck_v1/conv3/BatchNorm/gamma"
      }
    }
  }
  attr {
    key: "use_locking"
    value {
      b: true
    }
  }
  attr {
    key: "validate_shape"
    value {
      b: true
    }
  }
}
node {
  name: "resnet_v1_101/block1/unit_1/bottleneck_v1/conv3/BatchNorm/gamma/read"
  op: "Identity"
  input: "resnet_v1_101/block1/unit_1/bottleneck_v1/conv3/BatchNorm/gamma"
  attr {
    key: "T"
    value {
      type: DT_FLOAT
    }
  }
  attr {
    key: "_class"
    value {
      list {
        s: "loc:@resnet_v1_101/block1/unit_1/bottleneck_v1/conv3/BatchNorm/gamma"
      }
    }
  }
}
node {
  name: "resnet_v1_101/block1/unit_1/bottleneck_v1/conv3/BatchNorm/beta/Initializer/zeros"
  op: "Const"
  attr {
    key: "_class"
    value {
      list {
        s: "loc:@resnet_v1_101/block1/unit_1/bottleneck_v1/conv3/BatchNorm/beta"
      }
    }
  }
  attr {
    key: "dtype"
    value {
      type: DT_FLOAT
    }
  }
  attr {
    key: "value"
    value {
      tensor {
        dtype: DT_FLOAT
        tensor_shape {
          dim {
            size: 256
          }
        }
        float_val: 0.0
      }
    }
  }
}
node {
  name: "resnet_v1_101/block1/unit_1/bottleneck_v1/conv3/BatchNorm/beta"
  op: "VariableV2"
  attr {
    key: "_class"
    value {
      list {
        s: "loc:@resnet_v1_101/block1/unit_1/bottleneck_v1/conv3/BatchNorm/beta"
      }
    }
  }
  attr {
    key: "container"
    value {
      s: ""
    }
  }
  attr {
    key: "dtype"
    value {
      type: DT_FLOAT
    }
  }
  attr {
    key: "shape"
    value {
      shape {
        dim {
          size: 256
        }
      }
    }
  }
  attr {
    key: "shared_name"
    value {
      s: ""
    }
  }
}
node {
  name: "resnet_v1_101/block1/unit_1/bottleneck_v1/conv3/BatchNorm/beta/Assign"
  op: "Assign"
  input: "resnet_v1_101/block1/unit_1/bottleneck_v1/conv3/BatchNorm/beta"
  input: "resnet_v1_101/block1/unit_1/bottleneck_v1/conv3/BatchNorm/beta/Initializer/zeros"
  attr {
    key: "T"
    value {
      type: DT_FLOAT
    }
  }
  attr {
    key: "_class"
    value {
      list {
        s: "loc:@resnet_v1_101/block1/unit_1/bottleneck_v1/conv3/BatchNorm/beta"
      }
    }
  }
  attr {
    key: "use_locking"
    value {
      b: true
    }
  }
  attr {
    key: "validate_shape"
    value {
      b: true
    }
  }
}
node {
  name: "resnet_v1_101/block1/unit_1/bottleneck_v1/conv3/BatchNorm/beta/read"
  op: "Identity"
  input: "resnet_v1_101/block1/unit_1/bottleneck_v1/conv3/BatchNorm/beta"
  attr {
    key: "T"
    value {
      type: DT_FLOAT
    }
  }
  attr {
    key: "_class"
    value {
      list {
        s: "loc:@resnet_v1_101/block1/unit_1/bottleneck_v1/conv3/BatchNorm/beta"
      }
    }
  }
}
node {
  name: "resnet_v1_101/block1/unit_1/bottleneck_v1/conv3/BatchNorm/moving_mean/Initializer/zeros"
  op: "Const"
  attr {
    key: "_class"
    value {
      list {
        s: "loc:@resnet_v1_101/block1/unit_1/bottleneck_v1/conv3/BatchNorm/moving_mean"
      }
    }
  }
  attr {
    key: "dtype"
    value {
      type: DT_FLOAT
    }
  }
  attr {
    key: "value"
    value {
      tensor {
        dtype: DT_FLOAT
        tensor_shape {
          dim {
            size: 256
          }
        }
        float_val: 0.0
      }
    }
  }
}
node {
  name: "resnet_v1_101/block1/unit_1/bottleneck_v1/conv3/BatchNorm/moving_mean"
  op: "VariableV2"
  attr {
    key: "_class"
    value {
      list {
        s: "loc:@resnet_v1_101/block1/unit_1/bottleneck_v1/conv3/BatchNorm/moving_mean"
      }
    }
  }
  attr {
    key: "container"
    value {
      s: ""
    }
  }
  attr {
    key: "dtype"
    value {
      type: DT_FLOAT
    }
  }
  attr {
    key: "shape"
    value {
      shape {
        dim {
          size: 256
        }
      }
    }
  }
  attr {
    key: "shared_name"
    value {
      s: ""
    }
  }
}
node {
  name: "resnet_v1_101/block1/unit_1/bottleneck_v1/conv3/BatchNorm/moving_mean/Assign"
  op: "Assign"
  input: "resnet_v1_101/block1/unit_1/bottleneck_v1/conv3/BatchNorm/moving_mean"
  input: "resnet_v1_101/block1/unit_1/bottleneck_v1/conv3/BatchNorm/moving_mean/Initializer/zeros"
  attr {
    key: "T"
    value {
      type: DT_FLOAT
    }
  }
  attr {
    key: "_class"
    value {
      list {
        s: "loc:@resnet_v1_101/block1/unit_1/bottleneck_v1/conv3/BatchNorm/moving_mean"
      }
    }
  }
  attr {
    key: "use_locking"
    value {
      b: true
    }
  }
  attr {
    key: "validate_shape"
    value {
      b: true
    }
  }
}
node {
  name: "resnet_v1_101/block1/unit_1/bottleneck_v1/conv3/BatchNorm/moving_mean/read"
  op: "Identity"
  input: "resnet_v1_101/block1/unit_1/bottleneck_v1/conv3/BatchNorm/moving_mean"
  attr {
    key: "T"
    value {
      type: DT_FLOAT
    }
  }
  attr {
    key: "_class"
    value {
      list {
        s: "loc:@resnet_v1_101/block1/unit_1/bottleneck_v1/conv3/BatchNorm/moving_mean"
      }
    }
  }
}
node {
  name: "resnet_v1_101/block1/unit_1/bottleneck_v1/conv3/BatchNorm/moving_variance/Initializer/ones"
  op: "Const"
  attr {
    key: "_class"
    value {
      list {
        s: "loc:@resnet_v1_101/block1/unit_1/bottleneck_v1/conv3/BatchNorm/moving_variance"
      }
    }
  }
  attr {
    key: "dtype"
    value {
      type: DT_FLOAT
    }
  }
  attr {
    key: "value"
    value {
      tensor {
        dtype: DT_FLOAT
        tensor_shape {
          dim {
            size: 256
          }
        }
        float_val: 1.0
      }
    }
  }
}
node {
  name: "resnet_v1_101/block1/unit_1/bottleneck_v1/conv3/BatchNorm/moving_variance"
  op: "VariableV2"
  attr {
    key: "_class"
    value {
      list {
        s: "loc:@resnet_v1_101/block1/unit_1/bottleneck_v1/conv3/BatchNorm/moving_variance"
      }
    }
  }
  attr {
    key: "container"
    value {
      s: ""
    }
  }
  attr {
    key: "dtype"
    value {
      type: DT_FLOAT
    }
  }
  attr {
    key: "shape"
    value {
      shape {
        dim {
          size: 256
        }
      }
    }
  }
  attr {
    key: "shared_name"
    value {
      s: ""
    }
  }
}
node {
  name: "resnet_v1_101/block1/unit_1/bottleneck_v1/conv3/BatchNorm/moving_variance/Assign"
  op: "Assign"
  input: "resnet_v1_101/block1/unit_1/bottleneck_v1/conv3/BatchNorm/moving_variance"
  input: "resnet_v1_101/block1/unit_1/bottleneck_v1/conv3/BatchNorm/moving_variance/Initializer/ones"
  attr {
    key: "T"
    value {
      type: DT_FLOAT
    }
  }
  attr {
    key: "_class"
    value {
      list {
        s: "loc:@resnet_v1_101/block1/unit_1/bottleneck_v1/conv3/BatchNorm/moving_variance"
      }
    }
  }
  attr {
    key: "use_locking"
    value {
      b: true
    }
  }
  attr {
    key: "validate_shape"
    value {
      b: true
    }
  }
}
node {
  name: "resnet_v1_101/block1/unit_1/bottleneck_v1/conv3/BatchNorm/moving_variance/read"
  op: "Identity"
  input: "resnet_v1_101/block1/unit_1/bottleneck_v1/conv3/BatchNorm/moving_variance"
  attr {
    key: "T"
    value {
      type: DT_FLOAT
    }
  }
  attr {
    key: "_class"
    value {
      list {
        s: "loc:@resnet_v1_101/block1/unit_1/bottleneck_v1/conv3/BatchNorm/moving_variance"
      }
    }
  }
}
node {
  name: "resnet_v1_101/block1/unit_1/bottleneck_v1/conv3/BatchNorm/FusedBatchNormV3"
  op: "FusedBatchNormV3"
  input: "resnet_v1_101/block1/unit_1/bottleneck_v1/conv3/Conv2D"
  input: "resnet_v1_101/block1/unit_1/bottleneck_v1/conv3/BatchNorm/gamma/read"
  input: "resnet_v1_101/block1/unit_1/bottleneck_v1/conv3/BatchNorm/beta/read"
  input: "resnet_v1_101/block1/unit_1/bottleneck_v1/conv3/BatchNorm/moving_mean/read"
  input: "resnet_v1_101/block1/unit_1/bottleneck_v1/conv3/BatchNorm/moving_variance/read"
  attr {
    key: "T"
    value {
      type: DT_FLOAT
    }
  }
  attr {
    key: "U"
    value {
      type: DT_FLOAT
    }
  }
  attr {
    key: "data_format"
    value {
      s: "NHWC"
    }
  }
  attr {
    key: "epsilon"
    value {
      f: 1.0009999641624745e-05
    }
  }
  attr {
    key: "is_training"
    value {
      b: false
    }
  }
}
node {
  name: "resnet_v1_101/block1/unit_1/bottleneck_v1/conv3/BatchNorm/Const"
  op: "Const"
  attr {
    key: "dtype"
    value {
      type: DT_FLOAT
    }
  }
  attr {
    key: "value"
    value {
      tensor {
        dtype: DT_FLOAT
        tensor_shape {
        }
        float_val: 0.996999979019165
      }
    }
  }
}
node {
  name: "resnet_v1_101/block1/unit_1/bottleneck_v1/add"
  op: "AddV2"
  input: "resnet_v1_101/block1/unit_1/bottleneck_v1/shortcut/BatchNorm/FusedBatchNormV3"
  input: "resnet_v1_101/block1/unit_1/bottleneck_v1/conv3/BatchNorm/FusedBatchNormV3"
  attr {
    key: "T"
    value {
      type: DT_FLOAT
    }
  }
}
node {
  name: "resnet_v1_101/block1/unit_1/bottleneck_v1/Relu"
  op: "Relu"
  input: "resnet_v1_101/block1/unit_1/bottleneck_v1/add"
  attr {
    key: "T"
    value {
      type: DT_FLOAT
    }
  }
}
node {
  name: "resnet_v1_101/block1/unit_2/bottleneck_v1/conv1/weights/Initializer/truncated_normal/shape"
  op: "Const"
  attr {
    key: "_class"
    value {
      list {
        s: "loc:@resnet_v1_101/block1/unit_2/bottleneck_v1/conv1/weights"
      }
    }
  }
  attr {
    key: "dtype"
    value {
      type: DT_INT32
    }
  }
  attr {
    key: "value"
    value {
      tensor {
        dtype: DT_INT32
        tensor_shape {
          dim {
            size: 4
          }
        }
        tensor_content: "\001\000\000\000\001\000\000\000\000\001\000\000@\000\000\000"
      }
    }
  }
}
node {
  name: "resnet_v1_101/block1/unit_2/bottleneck_v1/conv1/weights/Initializer/truncated_normal/mean"
  op: "Const"
  attr {
    key: "_class"
    value {
      list {
        s: "loc:@resnet_v1_101/block1/unit_2/bottleneck_v1/conv1/weights"
      }
    }
  }
  attr {
    key: "dtype"
    value {
      type: DT_FLOAT
    }
  }
  attr {
    key: "value"
    value {
      tensor {
        dtype: DT_FLOAT
        tensor_shape {
        }
        float_val: 0.0
      }
    }
  }
}
node {
  name: "resnet_v1_101/block1/unit_2/bottleneck_v1/conv1/weights/Initializer/truncated_normal/stddev"
  op: "Const"
  attr {
    key: "_class"
    value {
      list {
        s: "loc:@resnet_v1_101/block1/unit_2/bottleneck_v1/conv1/weights"
      }
    }
  }
  attr {
    key: "dtype"
    value {
      type: DT_FLOAT
    }
  }
  attr {
    key: "value"
    value {
      tensor {
        dtype: DT_FLOAT
        tensor_shape {
        }
        float_val: 0.10077822208404541
      }
    }
  }
}
node {
  name: "resnet_v1_101/block1/unit_2/bottleneck_v1/conv1/weights/Initializer/truncated_normal/TruncatedNormal"
  op: "TruncatedNormal"
  input: "resnet_v1_101/block1/unit_2/bottleneck_v1/conv1/weights/Initializer/truncated_normal/shape"
  attr {
    key: "T"
    value {
      type: DT_INT32
    }
  }
  attr {
    key: "_class"
    value {
      list {
        s: "loc:@resnet_v1_101/block1/unit_2/bottleneck_v1/conv1/weights"
      }
    }
  }
  attr {
    key: "dtype"
    value {
      type: DT_FLOAT
    }
  }
  attr {
    key: "seed"
    value {
      i: 0
    }
  }
  attr {
    key: "seed2"
    value {
      i: 0
    }
  }
}
node {
  name: "resnet_v1_101/block1/unit_2/bottleneck_v1/conv1/weights/Initializer/truncated_normal/mul"
  op: "Mul"
  input: "resnet_v1_101/block1/unit_2/bottleneck_v1/conv1/weights/Initializer/truncated_normal/TruncatedNormal"
  input: "resnet_v1_101/block1/unit_2/bottleneck_v1/conv1/weights/Initializer/truncated_normal/stddev"
  attr {
    key: "T"
    value {
      type: DT_FLOAT
    }
  }
  attr {
    key: "_class"
    value {
      list {
        s: "loc:@resnet_v1_101/block1/unit_2/bottleneck_v1/conv1/weights"
      }
    }
  }
}
node {
  name: "resnet_v1_101/block1/unit_2/bottleneck_v1/conv1/weights/Initializer/truncated_normal"
  op: "Add"
  input: "resnet_v1_101/block1/unit_2/bottleneck_v1/conv1/weights/Initializer/truncated_normal/mul"
  input: "resnet_v1_101/block1/unit_2/bottleneck_v1/conv1/weights/Initializer/truncated_normal/mean"
  attr {
    key: "T"
    value {
      type: DT_FLOAT
    }
  }
  attr {
    key: "_class"
    value {
      list {
        s: "loc:@resnet_v1_101/block1/unit_2/bottleneck_v1/conv1/weights"
      }
    }
  }
}
node {
  name: "resnet_v1_101/block1/unit_2/bottleneck_v1/conv1/weights"
  op: "VariableV2"
  attr {
    key: "_class"
    value {
      list {
        s: "loc:@resnet_v1_101/block1/unit_2/bottleneck_v1/conv1/weights"
      }
    }
  }
  attr {
    key: "container"
    value {
      s: ""
    }
  }
  attr {
    key: "dtype"
    value {
      type: DT_FLOAT
    }
  }
  attr {
    key: "shape"
    value {
      shape {
        dim {
          size: 1
        }
        dim {
          size: 1
        }
        dim {
          size: 256
        }
        dim {
          size: 64
        }
      }
    }
  }
  attr {
    key: "shared_name"
    value {
      s: ""
    }
  }
}
node {
  name: "resnet_v1_101/block1/unit_2/bottleneck_v1/conv1/weights/Assign"
  op: "Assign"
  input: "resnet_v1_101/block1/unit_2/bottleneck_v1/conv1/weights"
  input: "resnet_v1_101/block1/unit_2/bottleneck_v1/conv1/weights/Initializer/truncated_normal"
  attr {
    key: "T"
    value {
      type: DT_FLOAT
    }
  }
  attr {
    key: "_class"
    value {
      list {
        s: "loc:@resnet_v1_101/block1/unit_2/bottleneck_v1/conv1/weights"
      }
    }
  }
  attr {
    key: "use_locking"
    value {
      b: true
    }
  }
  attr {
    key: "validate_shape"
    value {
      b: true
    }
  }
}
node {
  name: "resnet_v1_101/block1/unit_2/bottleneck_v1/conv1/weights/read"
  op: "Identity"
  input: "resnet_v1_101/block1/unit_2/bottleneck_v1/conv1/weights"
  attr {
    key: "T"
    value {
      type: DT_FLOAT
    }
  }
  attr {
    key: "_class"
    value {
      list {
        s: "loc:@resnet_v1_101/block1/unit_2/bottleneck_v1/conv1/weights"
      }
    }
  }
}
node {
  name: "resnet_v1_101/block1/unit_2/bottleneck_v1/conv1/kernel/Regularizer/l2_regularizer/scale"
  op: "Const"
  attr {
    key: "dtype"
    value {
      type: DT_FLOAT
    }
  }
  attr {
    key: "value"
    value {
      tensor {
        dtype: DT_FLOAT
        tensor_shape {
        }
        float_val: 9.999999747378752e-05
      }
    }
  }
}
node {
  name: "resnet_v1_101/block1/unit_2/bottleneck_v1/conv1/kernel/Regularizer/l2_regularizer/L2Loss"
  op: "L2Loss"
  input: "resnet_v1_101/block1/unit_2/bottleneck_v1/conv1/weights/read"
  attr {
    key: "T"
    value {
      type: DT_FLOAT
    }
  }
}
node {
  name: "resnet_v1_101/block1/unit_2/bottleneck_v1/conv1/kernel/Regularizer/l2_regularizer"
  op: "Mul"
  input: "resnet_v1_101/block1/unit_2/bottleneck_v1/conv1/kernel/Regularizer/l2_regularizer/scale"
  input: "resnet_v1_101/block1/unit_2/bottleneck_v1/conv1/kernel/Regularizer/l2_regularizer/L2Loss"
  attr {
    key: "T"
    value {
      type: DT_FLOAT
    }
  }
}
node {
  name: "resnet_v1_101/block1/unit_2/bottleneck_v1/conv1/dilation_rate"
  op: "Const"
  attr {
    key: "dtype"
    value {
      type: DT_INT32
    }
  }
  attr {
    key: "value"
    value {
      tensor {
        dtype: DT_INT32
        tensor_shape {
          dim {
            size: 2
          }
        }
        tensor_content: "\001\000\000\000\001\000\000\000"
      }
    }
  }
}
node {
  name: "resnet_v1_101/block1/unit_2/bottleneck_v1/conv1/Conv2D"
  op: "Conv2D"
  input: "resnet_v1_101/block1/unit_1/bottleneck_v1/Relu"
  input: "resnet_v1_101/block1/unit_2/bottleneck_v1/conv1/weights/read"
  attr {
    key: "T"
    value {
      type: DT_FLOAT
    }
  }
  attr {
    key: "data_format"
    value {
      s: "NHWC"
    }
  }
  attr {
    key: "dilations"
    value {
      list {
        i: 1
        i: 1
        i: 1
        i: 1
      }
    }
  }
  attr {
    key: "explicit_paddings"
    value {
      list {
      }
    }
  }
  attr {
    key: "padding"
    value {
      s: "SAME"
    }
  }
  attr {
    key: "strides"
    value {
      list {
        i: 1
        i: 1
        i: 1
        i: 1
      }
    }
  }
  attr {
    key: "use_cudnn_on_gpu"
    value {
      b: true
    }
  }
}
node {
  name: "resnet_v1_101/block1/unit_2/bottleneck_v1/conv1/BatchNorm/gamma/Initializer/ones"
  op: "Const"
  attr {
    key: "_class"
    value {
      list {
        s: "loc:@resnet_v1_101/block1/unit_2/bottleneck_v1/conv1/BatchNorm/gamma"
      }
    }
  }
  attr {
    key: "dtype"
    value {
      type: DT_FLOAT
    }
  }
  attr {
    key: "value"
    value {
      tensor {
        dtype: DT_FLOAT
        tensor_shape {
          dim {
            size: 64
          }
        }
        float_val: 1.0
      }
    }
  }
}
node {
  name: "resnet_v1_101/block1/unit_2/bottleneck_v1/conv1/BatchNorm/gamma"
  op: "VariableV2"
  attr {
    key: "_class"
    value {
      list {
        s: "loc:@resnet_v1_101/block1/unit_2/bottleneck_v1/conv1/BatchNorm/gamma"
      }
    }
  }
  attr {
    key: "container"
    value {
      s: ""
    }
  }
  attr {
    key: "dtype"
    value {
      type: DT_FLOAT
    }
  }
  attr {
    key: "shape"
    value {
      shape {
        dim {
          size: 64
        }
      }
    }
  }
  attr {
    key: "shared_name"
    value {
      s: ""
    }
  }
}
node {
  name: "resnet_v1_101/block1/unit_2/bottleneck_v1/conv1/BatchNorm/gamma/Assign"
  op: "Assign"
  input: "resnet_v1_101/block1/unit_2/bottleneck_v1/conv1/BatchNorm/gamma"
  input: "resnet_v1_101/block1/unit_2/bottleneck_v1/conv1/BatchNorm/gamma/Initializer/ones"
  attr {
    key: "T"
    value {
      type: DT_FLOAT
    }
  }
  attr {
    key: "_class"
    value {
      list {
        s: "loc:@resnet_v1_101/block1/unit_2/bottleneck_v1/conv1/BatchNorm/gamma"
      }
    }
  }
  attr {
    key: "use_locking"
    value {
      b: true
    }
  }
  attr {
    key: "validate_shape"
    value {
      b: true
    }
  }
}
node {
  name: "resnet_v1_101/block1/unit_2/bottleneck_v1/conv1/BatchNorm/gamma/read"
  op: "Identity"
  input: "resnet_v1_101/block1/unit_2/bottleneck_v1/conv1/BatchNorm/gamma"
  attr {
    key: "T"
    value {
      type: DT_FLOAT
    }
  }
  attr {
    key: "_class"
    value {
      list {
        s: "loc:@resnet_v1_101/block1/unit_2/bottleneck_v1/conv1/BatchNorm/gamma"
      }
    }
  }
}
node {
  name: "resnet_v1_101/block1/unit_2/bottleneck_v1/conv1/BatchNorm/beta/Initializer/zeros"
  op: "Const"
  attr {
    key: "_class"
    value {
      list {
        s: "loc:@resnet_v1_101/block1/unit_2/bottleneck_v1/conv1/BatchNorm/beta"
      }
    }
  }
  attr {
    key: "dtype"
    value {
      type: DT_FLOAT
    }
  }
  attr {
    key: "value"
    value {
      tensor {
        dtype: DT_FLOAT
        tensor_shape {
          dim {
            size: 64
          }
        }
        float_val: 0.0
      }
    }
  }
}
node {
  name: "resnet_v1_101/block1/unit_2/bottleneck_v1/conv1/BatchNorm/beta"
  op: "VariableV2"
  attr {
    key: "_class"
    value {
      list {
        s: "loc:@resnet_v1_101/block1/unit_2/bottleneck_v1/conv1/BatchNorm/beta"
      }
    }
  }
  attr {
    key: "container"
    value {
      s: ""
    }
  }
  attr {
    key: "dtype"
    value {
      type: DT_FLOAT
    }
  }
  attr {
    key: "shape"
    value {
      shape {
        dim {
          size: 64
        }
      }
    }
  }
  attr {
    key: "shared_name"
    value {
      s: ""
    }
  }
}
node {
  name: "resnet_v1_101/block1/unit_2/bottleneck_v1/conv1/BatchNorm/beta/Assign"
  op: "Assign"
  input: "resnet_v1_101/block1/unit_2/bottleneck_v1/conv1/BatchNorm/beta"
  input: "resnet_v1_101/block1/unit_2/bottleneck_v1/conv1/BatchNorm/beta/Initializer/zeros"
  attr {
    key: "T"
    value {
      type: DT_FLOAT
    }
  }
  attr {
    key: "_class"
    value {
      list {
        s: "loc:@resnet_v1_101/block1/unit_2/bottleneck_v1/conv1/BatchNorm/beta"
      }
    }
  }
  attr {
    key: "use_locking"
    value {
      b: true
    }
  }
  attr {
    key: "validate_shape"
    value {
      b: true
    }
  }
}
node {
  name: "resnet_v1_101/block1/unit_2/bottleneck_v1/conv1/BatchNorm/beta/read"
  op: "Identity"
  input: "resnet_v1_101/block1/unit_2/bottleneck_v1/conv1/BatchNorm/beta"
  attr {
    key: "T"
    value {
      type: DT_FLOAT
    }
  }
  attr {
    key: "_class"
    value {
      list {
        s: "loc:@resnet_v1_101/block1/unit_2/bottleneck_v1/conv1/BatchNorm/beta"
      }
    }
  }
}
node {
  name: "resnet_v1_101/block1/unit_2/bottleneck_v1/conv1/BatchNorm/moving_mean/Initializer/zeros"
  op: "Const"
  attr {
    key: "_class"
    value {
      list {
        s: "loc:@resnet_v1_101/block1/unit_2/bottleneck_v1/conv1/BatchNorm/moving_mean"
      }
    }
  }
  attr {
    key: "dtype"
    value {
      type: DT_FLOAT
    }
  }
  attr {
    key: "value"
    value {
      tensor {
        dtype: DT_FLOAT
        tensor_shape {
          dim {
            size: 64
          }
        }
        float_val: 0.0
      }
    }
  }
}
node {
  name: "resnet_v1_101/block1/unit_2/bottleneck_v1/conv1/BatchNorm/moving_mean"
  op: "VariableV2"
  attr {
    key: "_class"
    value {
      list {
        s: "loc:@resnet_v1_101/block1/unit_2/bottleneck_v1/conv1/BatchNorm/moving_mean"
      }
    }
  }
  attr {
    key: "container"
    value {
      s: ""
    }
  }
  attr {
    key: "dtype"
    value {
      type: DT_FLOAT
    }
  }
  attr {
    key: "shape"
    value {
      shape {
        dim {
          size: 64
        }
      }
    }
  }
  attr {
    key: "shared_name"
    value {
      s: ""
    }
  }
}
node {
  name: "resnet_v1_101/block1/unit_2/bottleneck_v1/conv1/BatchNorm/moving_mean/Assign"
  op: "Assign"
  input: "resnet_v1_101/block1/unit_2/bottleneck_v1/conv1/BatchNorm/moving_mean"
  input: "resnet_v1_101/block1/unit_2/bottleneck_v1/conv1/BatchNorm/moving_mean/Initializer/zeros"
  attr {
    key: "T"
    value {
      type: DT_FLOAT
    }
  }
  attr {
    key: "_class"
    value {
      list {
        s: "loc:@resnet_v1_101/block1/unit_2/bottleneck_v1/conv1/BatchNorm/moving_mean"
      }
    }
  }
  attr {
    key: "use_locking"
    value {
      b: true
    }
  }
  attr {
    key: "validate_shape"
    value {
      b: true
    }
  }
}
node {
  name: "resnet_v1_101/block1/unit_2/bottleneck_v1/conv1/BatchNorm/moving_mean/read"
  op: "Identity"
  input: "resnet_v1_101/block1/unit_2/bottleneck_v1/conv1/BatchNorm/moving_mean"
  attr {
    key: "T"
    value {
      type: DT_FLOAT
    }
  }
  attr {
    key: "_class"
    value {
      list {
        s: "loc:@resnet_v1_101/block1/unit_2/bottleneck_v1/conv1/BatchNorm/moving_mean"
      }
    }
  }
}
node {
  name: "resnet_v1_101/block1/unit_2/bottleneck_v1/conv1/BatchNorm/moving_variance/Initializer/ones"
  op: "Const"
  attr {
    key: "_class"
    value {
      list {
        s: "loc:@resnet_v1_101/block1/unit_2/bottleneck_v1/conv1/BatchNorm/moving_variance"
      }
    }
  }
  attr {
    key: "dtype"
    value {
      type: DT_FLOAT
    }
  }
  attr {
    key: "value"
    value {
      tensor {
        dtype: DT_FLOAT
        tensor_shape {
          dim {
            size: 64
          }
        }
        float_val: 1.0
      }
    }
  }
}
node {
  name: "resnet_v1_101/block1/unit_2/bottleneck_v1/conv1/BatchNorm/moving_variance"
  op: "VariableV2"
  attr {
    key: "_class"
    value {
      list {
        s: "loc:@resnet_v1_101/block1/unit_2/bottleneck_v1/conv1/BatchNorm/moving_variance"
      }
    }
  }
  attr {
    key: "container"
    value {
      s: ""
    }
  }
  attr {
    key: "dtype"
    value {
      type: DT_FLOAT
    }
  }
  attr {
    key: "shape"
    value {
      shape {
        dim {
          size: 64
        }
      }
    }
  }
  attr {
    key: "shared_name"
    value {
      s: ""
    }
  }
}
node {
  name: "resnet_v1_101/block1/unit_2/bottleneck_v1/conv1/BatchNorm/moving_variance/Assign"
  op: "Assign"
  input: "resnet_v1_101/block1/unit_2/bottleneck_v1/conv1/BatchNorm/moving_variance"
  input: "resnet_v1_101/block1/unit_2/bottleneck_v1/conv1/BatchNorm/moving_variance/Initializer/ones"
  attr {
    key: "T"
    value {
      type: DT_FLOAT
    }
  }
  attr {
    key: "_class"
    value {
      list {
        s: "loc:@resnet_v1_101/block1/unit_2/bottleneck_v1/conv1/BatchNorm/moving_variance"
      }
    }
  }
  attr {
    key: "use_locking"
    value {
      b: true
    }
  }
  attr {
    key: "validate_shape"
    value {
      b: true
    }
  }
}
node {
  name: "resnet_v1_101/block1/unit_2/bottleneck_v1/conv1/BatchNorm/moving_variance/read"
  op: "Identity"
  input: "resnet_v1_101/block1/unit_2/bottleneck_v1/conv1/BatchNorm/moving_variance"
  attr {
    key: "T"
    value {
      type: DT_FLOAT
    }
  }
  attr {
    key: "_class"
    value {
      list {
        s: "loc:@resnet_v1_101/block1/unit_2/bottleneck_v1/conv1/BatchNorm/moving_variance"
      }
    }
  }
}
node {
  name: "resnet_v1_101/block1/unit_2/bottleneck_v1/conv1/BatchNorm/FusedBatchNormV3"
  op: "FusedBatchNormV3"
  input: "resnet_v1_101/block1/unit_2/bottleneck_v1/conv1/Conv2D"
  input: "resnet_v1_101/block1/unit_2/bottleneck_v1/conv1/BatchNorm/gamma/read"
  input: "resnet_v1_101/block1/unit_2/bottleneck_v1/conv1/BatchNorm/beta/read"
  input: "resnet_v1_101/block1/unit_2/bottleneck_v1/conv1/BatchNorm/moving_mean/read"
  input: "resnet_v1_101/block1/unit_2/bottleneck_v1/conv1/BatchNorm/moving_variance/read"
  attr {
    key: "T"
    value {
      type: DT_FLOAT
    }
  }
  attr {
    key: "U"
    value {
      type: DT_FLOAT
    }
  }
  attr {
    key: "data_format"
    value {
      s: "NHWC"
    }
  }
  attr {
    key: "epsilon"
    value {
      f: 1.0009999641624745e-05
    }
  }
  attr {
    key: "is_training"
    value {
      b: false
    }
  }
}
node {
  name: "resnet_v1_101/block1/unit_2/bottleneck_v1/conv1/BatchNorm/Const"
  op: "Const"
  attr {
    key: "dtype"
    value {
      type: DT_FLOAT
    }
  }
  attr {
    key: "value"
    value {
      tensor {
        dtype: DT_FLOAT
        tensor_shape {
        }
        float_val: 0.996999979019165
      }
    }
  }
}
node {
  name: "resnet_v1_101/block1/unit_2/bottleneck_v1/conv1/Relu"
  op: "Relu"
  input: "resnet_v1_101/block1/unit_2/bottleneck_v1/conv1/BatchNorm/FusedBatchNormV3"
  attr {
    key: "T"
    value {
      type: DT_FLOAT
    }
  }
}
node {
  name: "resnet_v1_101/block1/unit_2/bottleneck_v1/conv2/weights/Initializer/truncated_normal/shape"
  op: "Const"
  attr {
    key: "_class"
    value {
      list {
        s: "loc:@resnet_v1_101/block1/unit_2/bottleneck_v1/conv2/weights"
      }
    }
  }
  attr {
    key: "dtype"
    value {
      type: DT_INT32
    }
  }
  attr {
    key: "value"
    value {
      tensor {
        dtype: DT_INT32
        tensor_shape {
          dim {
            size: 4
          }
        }
        tensor_content: "\003\000\000\000\003\000\000\000@\000\000\000@\000\000\000"
      }
    }
  }
}
node {
  name: "resnet_v1_101/block1/unit_2/bottleneck_v1/conv2/weights/Initializer/truncated_normal/mean"
  op: "Const"
  attr {
    key: "_class"
    value {
      list {
        s: "loc:@resnet_v1_101/block1/unit_2/bottleneck_v1/conv2/weights"
      }
    }
  }
  attr {
    key: "dtype"
    value {
      type: DT_FLOAT
    }
  }
  attr {
    key: "value"
    value {
      tensor {
        dtype: DT_FLOAT
        tensor_shape {
        }
        float_val: 0.0
      }
    }
  }
}
node {
  name: "resnet_v1_101/block1/unit_2/bottleneck_v1/conv2/weights/Initializer/truncated_normal/stddev"
  op: "Const"
  attr {
    key: "_class"
    value {
      list {
        s: "loc:@resnet_v1_101/block1/unit_2/bottleneck_v1/conv2/weights"
      }
    }
  }
  attr {
    key: "dtype"
    value {
      type: DT_FLOAT
    }
  }
  attr {
    key: "value"
    value {
      tensor {
        dtype: DT_FLOAT
        tensor_shape {
        }
        float_val: 0.06718548387289047
      }
    }
  }
}
node {
  name: "resnet_v1_101/block1/unit_2/bottleneck_v1/conv2/weights/Initializer/truncated_normal/TruncatedNormal"
  op: "TruncatedNormal"
  input: "resnet_v1_101/block1/unit_2/bottleneck_v1/conv2/weights/Initializer/truncated_normal/shape"
  attr {
    key: "T"
    value {
      type: DT_INT32
    }
  }
  attr {
    key: "_class"
    value {
      list {
        s: "loc:@resnet_v1_101/block1/unit_2/bottleneck_v1/conv2/weights"
      }
    }
  }
  attr {
    key: "dtype"
    value {
      type: DT_FLOAT
    }
  }
  attr {
    key: "seed"
    value {
      i: 0
    }
  }
  attr {
    key: "seed2"
    value {
      i: 0
    }
  }
}
node {
  name: "resnet_v1_101/block1/unit_2/bottleneck_v1/conv2/weights/Initializer/truncated_normal/mul"
  op: "Mul"
  input: "resnet_v1_101/block1/unit_2/bottleneck_v1/conv2/weights/Initializer/truncated_normal/TruncatedNormal"
  input: "resnet_v1_101/block1/unit_2/bottleneck_v1/conv2/weights/Initializer/truncated_normal/stddev"
  attr {
    key: "T"
    value {
      type: DT_FLOAT
    }
  }
  attr {
    key: "_class"
    value {
      list {
        s: "loc:@resnet_v1_101/block1/unit_2/bottleneck_v1/conv2/weights"
      }
    }
  }
}
node {
  name: "resnet_v1_101/block1/unit_2/bottleneck_v1/conv2/weights/Initializer/truncated_normal"
  op: "Add"
  input: "resnet_v1_101/block1/unit_2/bottleneck_v1/conv2/weights/Initializer/truncated_normal/mul"
  input: "resnet_v1_101/block1/unit_2/bottleneck_v1/conv2/weights/Initializer/truncated_normal/mean"
  attr {
    key: "T"
    value {
      type: DT_FLOAT
    }
  }
  attr {
    key: "_class"
    value {
      list {
        s: "loc:@resnet_v1_101/block1/unit_2/bottleneck_v1/conv2/weights"
      }
    }
  }
}
node {
  name: "resnet_v1_101/block1/unit_2/bottleneck_v1/conv2/weights"
  op: "VariableV2"
  attr {
    key: "_class"
    value {
      list {
        s: "loc:@resnet_v1_101/block1/unit_2/bottleneck_v1/conv2/weights"
      }
    }
  }
  attr {
    key: "container"
    value {
      s: ""
    }
  }
  attr {
    key: "dtype"
    value {
      type: DT_FLOAT
    }
  }
  attr {
    key: "shape"
    value {
      shape {
        dim {
          size: 3
        }
        dim {
          size: 3
        }
        dim {
          size: 64
        }
        dim {
          size: 64
        }
      }
    }
  }
  attr {
    key: "shared_name"
    value {
      s: ""
    }
  }
}
node {
  name: "resnet_v1_101/block1/unit_2/bottleneck_v1/conv2/weights/Assign"
  op: "Assign"
  input: "resnet_v1_101/block1/unit_2/bottleneck_v1/conv2/weights"
  input: "resnet_v1_101/block1/unit_2/bottleneck_v1/conv2/weights/Initializer/truncated_normal"
  attr {
    key: "T"
    value {
      type: DT_FLOAT
    }
  }
  attr {
    key: "_class"
    value {
      list {
        s: "loc:@resnet_v1_101/block1/unit_2/bottleneck_v1/conv2/weights"
      }
    }
  }
  attr {
    key: "use_locking"
    value {
      b: true
    }
  }
  attr {
    key: "validate_shape"
    value {
      b: true
    }
  }
}
node {
  name: "resnet_v1_101/block1/unit_2/bottleneck_v1/conv2/weights/read"
  op: "Identity"
  input: "resnet_v1_101/block1/unit_2/bottleneck_v1/conv2/weights"
  attr {
    key: "T"
    value {
      type: DT_FLOAT
    }
  }
  attr {
    key: "_class"
    value {
      list {
        s: "loc:@resnet_v1_101/block1/unit_2/bottleneck_v1/conv2/weights"
      }
    }
  }
}
node {
  name: "resnet_v1_101/block1/unit_2/bottleneck_v1/conv2/kernel/Regularizer/l2_regularizer/scale"
  op: "Const"
  attr {
    key: "dtype"
    value {
      type: DT_FLOAT
    }
  }
  attr {
    key: "value"
    value {
      tensor {
        dtype: DT_FLOAT
        tensor_shape {
        }
        float_val: 9.999999747378752e-05
      }
    }
  }
}
node {
  name: "resnet_v1_101/block1/unit_2/bottleneck_v1/conv2/kernel/Regularizer/l2_regularizer/L2Loss"
  op: "L2Loss"
  input: "resnet_v1_101/block1/unit_2/bottleneck_v1/conv2/weights/read"
  attr {
    key: "T"
    value {
      type: DT_FLOAT
    }
  }
}
node {
  name: "resnet_v1_101/block1/unit_2/bottleneck_v1/conv2/kernel/Regularizer/l2_regularizer"
  op: "Mul"
  input: "resnet_v1_101/block1/unit_2/bottleneck_v1/conv2/kernel/Regularizer/l2_regularizer/scale"
  input: "resnet_v1_101/block1/unit_2/bottleneck_v1/conv2/kernel/Regularizer/l2_regularizer/L2Loss"
  attr {
    key: "T"
    value {
      type: DT_FLOAT
    }
  }
}
node {
  name: "resnet_v1_101/block1/unit_2/bottleneck_v1/conv2/dilation_rate"
  op: "Const"
  attr {
    key: "dtype"
    value {
      type: DT_INT32
    }
  }
  attr {
    key: "value"
    value {
      tensor {
        dtype: DT_INT32
        tensor_shape {
          dim {
            size: 2
          }
        }
        tensor_content: "\001\000\000\000\001\000\000\000"
      }
    }
  }
}
node {
  name: "resnet_v1_101/block1/unit_2/bottleneck_v1/conv2/Conv2D"
  op: "Conv2D"
  input: "resnet_v1_101/block1/unit_2/bottleneck_v1/conv1/Relu"
  input: "resnet_v1_101/block1/unit_2/bottleneck_v1/conv2/weights/read"
  attr {
    key: "T"
    value {
      type: DT_FLOAT
    }
  }
  attr {
    key: "data_format"
    value {
      s: "NHWC"
    }
  }
  attr {
    key: "dilations"
    value {
      list {
        i: 1
        i: 1
        i: 1
        i: 1
      }
    }
  }
  attr {
    key: "explicit_paddings"
    value {
      list {
      }
    }
  }
  attr {
    key: "padding"
    value {
      s: "SAME"
    }
  }
  attr {
    key: "strides"
    value {
      list {
        i: 1
        i: 1
        i: 1
        i: 1
      }
    }
  }
  attr {
    key: "use_cudnn_on_gpu"
    value {
      b: true
    }
  }
}
node {
  name: "resnet_v1_101/block1/unit_2/bottleneck_v1/conv2/BatchNorm/gamma/Initializer/ones"
  op: "Const"
  attr {
    key: "_class"
    value {
      list {
        s: "loc:@resnet_v1_101/block1/unit_2/bottleneck_v1/conv2/BatchNorm/gamma"
      }
    }
  }
  attr {
    key: "dtype"
    value {
      type: DT_FLOAT
    }
  }
  attr {
    key: "value"
    value {
      tensor {
        dtype: DT_FLOAT
        tensor_shape {
          dim {
            size: 64
          }
        }
        float_val: 1.0
      }
    }
  }
}
node {
  name: "resnet_v1_101/block1/unit_2/bottleneck_v1/conv2/BatchNorm/gamma"
  op: "VariableV2"
  attr {
    key: "_class"
    value {
      list {
        s: "loc:@resnet_v1_101/block1/unit_2/bottleneck_v1/conv2/BatchNorm/gamma"
      }
    }
  }
  attr {
    key: "container"
    value {
      s: ""
    }
  }
  attr {
    key: "dtype"
    value {
      type: DT_FLOAT
    }
  }
  attr {
    key: "shape"
    value {
      shape {
        dim {
          size: 64
        }
      }
    }
  }
  attr {
    key: "shared_name"
    value {
      s: ""
    }
  }
}
node {
  name: "resnet_v1_101/block1/unit_2/bottleneck_v1/conv2/BatchNorm/gamma/Assign"
  op: "Assign"
  input: "resnet_v1_101/block1/unit_2/bottleneck_v1/conv2/BatchNorm/gamma"
  input: "resnet_v1_101/block1/unit_2/bottleneck_v1/conv2/BatchNorm/gamma/Initializer/ones"
  attr {
    key: "T"
    value {
      type: DT_FLOAT
    }
  }
  attr {
    key: "_class"
    value {
      list {
        s: "loc:@resnet_v1_101/block1/unit_2/bottleneck_v1/conv2/BatchNorm/gamma"
      }
    }
  }
  attr {
    key: "use_locking"
    value {
      b: true
    }
  }
  attr {
    key: "validate_shape"
    value {
      b: true
    }
  }
}
node {
  name: "resnet_v1_101/block1/unit_2/bottleneck_v1/conv2/BatchNorm/gamma/read"
  op: "Identity"
  input: "resnet_v1_101/block1/unit_2/bottleneck_v1/conv2/BatchNorm/gamma"
  attr {
    key: "T"
    value {
      type: DT_FLOAT
    }
  }
  attr {
    key: "_class"
    value {
      list {
        s: "loc:@resnet_v1_101/block1/unit_2/bottleneck_v1/conv2/BatchNorm/gamma"
      }
    }
  }
}
node {
  name: "resnet_v1_101/block1/unit_2/bottleneck_v1/conv2/BatchNorm/beta/Initializer/zeros"
  op: "Const"
  attr {
    key: "_class"
    value {
      list {
        s: "loc:@resnet_v1_101/block1/unit_2/bottleneck_v1/conv2/BatchNorm/beta"
      }
    }
  }
  attr {
    key: "dtype"
    value {
      type: DT_FLOAT
    }
  }
  attr {
    key: "value"
    value {
      tensor {
        dtype: DT_FLOAT
        tensor_shape {
          dim {
            size: 64
          }
        }
        float_val: 0.0
      }
    }
  }
}
node {
  name: "resnet_v1_101/block1/unit_2/bottleneck_v1/conv2/BatchNorm/beta"
  op: "VariableV2"
  attr {
    key: "_class"
    value {
      list {
        s: "loc:@resnet_v1_101/block1/unit_2/bottleneck_v1/conv2/BatchNorm/beta"
      }
    }
  }
  attr {
    key: "container"
    value {
      s: ""
    }
  }
  attr {
    key: "dtype"
    value {
      type: DT_FLOAT
    }
  }
  attr {
    key: "shape"
    value {
      shape {
        dim {
          size: 64
        }
      }
    }
  }
  attr {
    key: "shared_name"
    value {
      s: ""
    }
  }
}
node {
  name: "resnet_v1_101/block1/unit_2/bottleneck_v1/conv2/BatchNorm/beta/Assign"
  op: "Assign"
  input: "resnet_v1_101/block1/unit_2/bottleneck_v1/conv2/BatchNorm/beta"
  input: "resnet_v1_101/block1/unit_2/bottleneck_v1/conv2/BatchNorm/beta/Initializer/zeros"
  attr {
    key: "T"
    value {
      type: DT_FLOAT
    }
  }
  attr {
    key: "_class"
    value {
      list {
        s: "loc:@resnet_v1_101/block1/unit_2/bottleneck_v1/conv2/BatchNorm/beta"
      }
    }
  }
  attr {
    key: "use_locking"
    value {
      b: true
    }
  }
  attr {
    key: "validate_shape"
    value {
      b: true
    }
  }
}
node {
  name: "resnet_v1_101/block1/unit_2/bottleneck_v1/conv2/BatchNorm/beta/read"
  op: "Identity"
  input: "resnet_v1_101/block1/unit_2/bottleneck_v1/conv2/BatchNorm/beta"
  attr {
    key: "T"
    value {
      type: DT_FLOAT
    }
  }
  attr {
    key: "_class"
    value {
      list {
        s: "loc:@resnet_v1_101/block1/unit_2/bottleneck_v1/conv2/BatchNorm/beta"
      }
    }
  }
}
node {
  name: "resnet_v1_101/block1/unit_2/bottleneck_v1/conv2/BatchNorm/moving_mean/Initializer/zeros"
  op: "Const"
  attr {
    key: "_class"
    value {
      list {
        s: "loc:@resnet_v1_101/block1/unit_2/bottleneck_v1/conv2/BatchNorm/moving_mean"
      }
    }
  }
  attr {
    key: "dtype"
    value {
      type: DT_FLOAT
    }
  }
  attr {
    key: "value"
    value {
      tensor {
        dtype: DT_FLOAT
        tensor_shape {
          dim {
            size: 64
          }
        }
        float_val: 0.0
      }
    }
  }
}
node {
  name: "resnet_v1_101/block1/unit_2/bottleneck_v1/conv2/BatchNorm/moving_mean"
  op: "VariableV2"
  attr {
    key: "_class"
    value {
      list {
        s: "loc:@resnet_v1_101/block1/unit_2/bottleneck_v1/conv2/BatchNorm/moving_mean"
      }
    }
  }
  attr {
    key: "container"
    value {
      s: ""
    }
  }
  attr {
    key: "dtype"
    value {
      type: DT_FLOAT
    }
  }
  attr {
    key: "shape"
    value {
      shape {
        dim {
          size: 64
        }
      }
    }
  }
  attr {
    key: "shared_name"
    value {
      s: ""
    }
  }
}
node {
  name: "resnet_v1_101/block1/unit_2/bottleneck_v1/conv2/BatchNorm/moving_mean/Assign"
  op: "Assign"
  input: "resnet_v1_101/block1/unit_2/bottleneck_v1/conv2/BatchNorm/moving_mean"
  input: "resnet_v1_101/block1/unit_2/bottleneck_v1/conv2/BatchNorm/moving_mean/Initializer/zeros"
  attr {
    key: "T"
    value {
      type: DT_FLOAT
    }
  }
  attr {
    key: "_class"
    value {
      list {
        s: "loc:@resnet_v1_101/block1/unit_2/bottleneck_v1/conv2/BatchNorm/moving_mean"
      }
    }
  }
  attr {
    key: "use_locking"
    value {
      b: true
    }
  }
  attr {
    key: "validate_shape"
    value {
      b: true
    }
  }
}
node {
  name: "resnet_v1_101/block1/unit_2/bottleneck_v1/conv2/BatchNorm/moving_mean/read"
  op: "Identity"
  input: "resnet_v1_101/block1/unit_2/bottleneck_v1/conv2/BatchNorm/moving_mean"
  attr {
    key: "T"
    value {
      type: DT_FLOAT
    }
  }
  attr {
    key: "_class"
    value {
      list {
        s: "loc:@resnet_v1_101/block1/unit_2/bottleneck_v1/conv2/BatchNorm/moving_mean"
      }
    }
  }
}
node {
  name: "resnet_v1_101/block1/unit_2/bottleneck_v1/conv2/BatchNorm/moving_variance/Initializer/ones"
  op: "Const"
  attr {
    key: "_class"
    value {
      list {
        s: "loc:@resnet_v1_101/block1/unit_2/bottleneck_v1/conv2/BatchNorm/moving_variance"
      }
    }
  }
  attr {
    key: "dtype"
    value {
      type: DT_FLOAT
    }
  }
  attr {
    key: "value"
    value {
      tensor {
        dtype: DT_FLOAT
        tensor_shape {
          dim {
            size: 64
          }
        }
        float_val: 1.0
      }
    }
  }
}
node {
  name: "resnet_v1_101/block1/unit_2/bottleneck_v1/conv2/BatchNorm/moving_variance"
  op: "VariableV2"
  attr {
    key: "_class"
    value {
      list {
        s: "loc:@resnet_v1_101/block1/unit_2/bottleneck_v1/conv2/BatchNorm/moving_variance"
      }
    }
  }
  attr {
    key: "container"
    value {
      s: ""
    }
  }
  attr {
    key: "dtype"
    value {
      type: DT_FLOAT
    }
  }
  attr {
    key: "shape"
    value {
      shape {
        dim {
          size: 64
        }
      }
    }
  }
  attr {
    key: "shared_name"
    value {
      s: ""
    }
  }
}
node {
  name: "resnet_v1_101/block1/unit_2/bottleneck_v1/conv2/BatchNorm/moving_variance/Assign"
  op: "Assign"
  input: "resnet_v1_101/block1/unit_2/bottleneck_v1/conv2/BatchNorm/moving_variance"
  input: "resnet_v1_101/block1/unit_2/bottleneck_v1/conv2/BatchNorm/moving_variance/Initializer/ones"
  attr {
    key: "T"
    value {
      type: DT_FLOAT
    }
  }
  attr {
    key: "_class"
    value {
      list {
        s: "loc:@resnet_v1_101/block1/unit_2/bottleneck_v1/conv2/BatchNorm/moving_variance"
      }
    }
  }
  attr {
    key: "use_locking"
    value {
      b: true
    }
  }
  attr {
    key: "validate_shape"
    value {
      b: true
    }
  }
}
node {
  name: "resnet_v1_101/block1/unit_2/bottleneck_v1/conv2/BatchNorm/moving_variance/read"
  op: "Identity"
  input: "resnet_v1_101/block1/unit_2/bottleneck_v1/conv2/BatchNorm/moving_variance"
  attr {
    key: "T"
    value {
      type: DT_FLOAT
    }
  }
  attr {
    key: "_class"
    value {
      list {
        s: "loc:@resnet_v1_101/block1/unit_2/bottleneck_v1/conv2/BatchNorm/moving_variance"
      }
    }
  }
}
node {
  name: "resnet_v1_101/block1/unit_2/bottleneck_v1/conv2/BatchNorm/FusedBatchNormV3"
  op: "FusedBatchNormV3"
  input: "resnet_v1_101/block1/unit_2/bottleneck_v1/conv2/Conv2D"
  input: "resnet_v1_101/block1/unit_2/bottleneck_v1/conv2/BatchNorm/gamma/read"
  input: "resnet_v1_101/block1/unit_2/bottleneck_v1/conv2/BatchNorm/beta/read"
  input: "resnet_v1_101/block1/unit_2/bottleneck_v1/conv2/BatchNorm/moving_mean/read"
  input: "resnet_v1_101/block1/unit_2/bottleneck_v1/conv2/BatchNorm/moving_variance/read"
  attr {
    key: "T"
    value {
      type: DT_FLOAT
    }
  }
  attr {
    key: "U"
    value {
      type: DT_FLOAT
    }
  }
  attr {
    key: "data_format"
    value {
      s: "NHWC"
    }
  }
  attr {
    key: "epsilon"
    value {
      f: 1.0009999641624745e-05
    }
  }
  attr {
    key: "is_training"
    value {
      b: false
    }
  }
}
node {
  name: "resnet_v1_101/block1/unit_2/bottleneck_v1/conv2/BatchNorm/Const"
  op: "Const"
  attr {
    key: "dtype"
    value {
      type: DT_FLOAT
    }
  }
  attr {
    key: "value"
    value {
      tensor {
        dtype: DT_FLOAT
        tensor_shape {
        }
        float_val: 0.996999979019165
      }
    }
  }
}
node {
  name: "resnet_v1_101/block1/unit_2/bottleneck_v1/conv2/Relu"
  op: "Relu"
  input: "resnet_v1_101/block1/unit_2/bottleneck_v1/conv2/BatchNorm/FusedBatchNormV3"
  attr {
    key: "T"
    value {
      type: DT_FLOAT
    }
  }
}
node {
  name: "resnet_v1_101/block1/unit_2/bottleneck_v1/conv3/weights/Initializer/truncated_normal/shape"
  op: "Const"
  attr {
    key: "_class"
    value {
      list {
        s: "loc:@resnet_v1_101/block1/unit_2/bottleneck_v1/conv3/weights"
      }
    }
  }
  attr {
    key: "dtype"
    value {
      type: DT_INT32
    }
  }
  attr {
    key: "value"
    value {
      tensor {
        dtype: DT_INT32
        tensor_shape {
          dim {
            size: 4
          }
        }
        tensor_content: "\001\000\000\000\001\000\000\000@\000\000\000\000\001\000\000"
      }
    }
  }
}
node {
  name: "resnet_v1_101/block1/unit_2/bottleneck_v1/conv3/weights/Initializer/truncated_normal/mean"
  op: "Const"
  attr {
    key: "_class"
    value {
      list {
        s: "loc:@resnet_v1_101/block1/unit_2/bottleneck_v1/conv3/weights"
      }
    }
  }
  attr {
    key: "dtype"
    value {
      type: DT_FLOAT
    }
  }
  attr {
    key: "value"
    value {
      tensor {
        dtype: DT_FLOAT
        tensor_shape {
        }
        float_val: 0.0
      }
    }
  }
}
node {
  name: "resnet_v1_101/block1/unit_2/bottleneck_v1/conv3/weights/Initializer/truncated_normal/stddev"
  op: "Const"
  attr {
    key: "_class"
    value {
      list {
        s: "loc:@resnet_v1_101/block1/unit_2/bottleneck_v1/conv3/weights"
      }
    }
  }
  attr {
    key: "dtype"
    value {
      type: DT_FLOAT
    }
  }
  attr {
    key: "value"
    value {
      tensor {
        dtype: DT_FLOAT
        tensor_shape {
        }
        float_val: 0.20155644416809082
      }
    }
  }
}
node {
  name: "resnet_v1_101/block1/unit_2/bottleneck_v1/conv3/weights/Initializer/truncated_normal/TruncatedNormal"
  op: "TruncatedNormal"
  input: "resnet_v1_101/block1/unit_2/bottleneck_v1/conv3/weights/Initializer/truncated_normal/shape"
  attr {
    key: "T"
    value {
      type: DT_INT32
    }
  }
  attr {
    key: "_class"
    value {
      list {
        s: "loc:@resnet_v1_101/block1/unit_2/bottleneck_v1/conv3/weights"
      }
    }
  }
  attr {
    key: "dtype"
    value {
      type: DT_FLOAT
    }
  }
  attr {
    key: "seed"
    value {
      i: 0
    }
  }
  attr {
    key: "seed2"
    value {
      i: 0
    }
  }
}
node {
  name: "resnet_v1_101/block1/unit_2/bottleneck_v1/conv3/weights/Initializer/truncated_normal/mul"
  op: "Mul"
  input: "resnet_v1_101/block1/unit_2/bottleneck_v1/conv3/weights/Initializer/truncated_normal/TruncatedNormal"
  input: "resnet_v1_101/block1/unit_2/bottleneck_v1/conv3/weights/Initializer/truncated_normal/stddev"
  attr {
    key: "T"
    value {
      type: DT_FLOAT
    }
  }
  attr {
    key: "_class"
    value {
      list {
        s: "loc:@resnet_v1_101/block1/unit_2/bottleneck_v1/conv3/weights"
      }
    }
  }
}
node {
  name: "resnet_v1_101/block1/unit_2/bottleneck_v1/conv3/weights/Initializer/truncated_normal"
  op: "Add"
  input: "resnet_v1_101/block1/unit_2/bottleneck_v1/conv3/weights/Initializer/truncated_normal/mul"
  input: "resnet_v1_101/block1/unit_2/bottleneck_v1/conv3/weights/Initializer/truncated_normal/mean"
  attr {
    key: "T"
    value {
      type: DT_FLOAT
    }
  }
  attr {
    key: "_class"
    value {
      list {
        s: "loc:@resnet_v1_101/block1/unit_2/bottleneck_v1/conv3/weights"
      }
    }
  }
}
node {
  name: "resnet_v1_101/block1/unit_2/bottleneck_v1/conv3/weights"
  op: "VariableV2"
  attr {
    key: "_class"
    value {
      list {
        s: "loc:@resnet_v1_101/block1/unit_2/bottleneck_v1/conv3/weights"
      }
    }
  }
  attr {
    key: "container"
    value {
      s: ""
    }
  }
  attr {
    key: "dtype"
    value {
      type: DT_FLOAT
    }
  }
  attr {
    key: "shape"
    value {
      shape {
        dim {
          size: 1
        }
        dim {
          size: 1
        }
        dim {
          size: 64
        }
        dim {
          size: 256
        }
      }
    }
  }
  attr {
    key: "shared_name"
    value {
      s: ""
    }
  }
}
node {
  name: "resnet_v1_101/block1/unit_2/bottleneck_v1/conv3/weights/Assign"
  op: "Assign"
  input: "resnet_v1_101/block1/unit_2/bottleneck_v1/conv3/weights"
  input: "resnet_v1_101/block1/unit_2/bottleneck_v1/conv3/weights/Initializer/truncated_normal"
  attr {
    key: "T"
    value {
      type: DT_FLOAT
    }
  }
  attr {
    key: "_class"
    value {
      list {
        s: "loc:@resnet_v1_101/block1/unit_2/bottleneck_v1/conv3/weights"
      }
    }
  }
  attr {
    key: "use_locking"
    value {
      b: true
    }
  }
  attr {
    key: "validate_shape"
    value {
      b: true
    }
  }
}
node {
  name: "resnet_v1_101/block1/unit_2/bottleneck_v1/conv3/weights/read"
  op: "Identity"
  input: "resnet_v1_101/block1/unit_2/bottleneck_v1/conv3/weights"
  attr {
    key: "T"
    value {
      type: DT_FLOAT
    }
  }
  attr {
    key: "_class"
    value {
      list {
        s: "loc:@resnet_v1_101/block1/unit_2/bottleneck_v1/conv3/weights"
      }
    }
  }
}
node {
  name: "resnet_v1_101/block1/unit_2/bottleneck_v1/conv3/kernel/Regularizer/l2_regularizer/scale"
  op: "Const"
  attr {
    key: "dtype"
    value {
      type: DT_FLOAT
    }
  }
  attr {
    key: "value"
    value {
      tensor {
        dtype: DT_FLOAT
        tensor_shape {
        }
        float_val: 9.999999747378752e-05
      }
    }
  }
}
node {
  name: "resnet_v1_101/block1/unit_2/bottleneck_v1/conv3/kernel/Regularizer/l2_regularizer/L2Loss"
  op: "L2Loss"
  input: "resnet_v1_101/block1/unit_2/bottleneck_v1/conv3/weights/read"
  attr {
    key: "T"
    value {
      type: DT_FLOAT
    }
  }
}
node {
  name: "resnet_v1_101/block1/unit_2/bottleneck_v1/conv3/kernel/Regularizer/l2_regularizer"
  op: "Mul"
  input: "resnet_v1_101/block1/unit_2/bottleneck_v1/conv3/kernel/Regularizer/l2_regularizer/scale"
  input: "resnet_v1_101/block1/unit_2/bottleneck_v1/conv3/kernel/Regularizer/l2_regularizer/L2Loss"
  attr {
    key: "T"
    value {
      type: DT_FLOAT
    }
  }
}
node {
  name: "resnet_v1_101/block1/unit_2/bottleneck_v1/conv3/dilation_rate"
  op: "Const"
  attr {
    key: "dtype"
    value {
      type: DT_INT32
    }
  }
  attr {
    key: "value"
    value {
      tensor {
        dtype: DT_INT32
        tensor_shape {
          dim {
            size: 2
          }
        }
        tensor_content: "\001\000\000\000\001\000\000\000"
      }
    }
  }
}
node {
  name: "resnet_v1_101/block1/unit_2/bottleneck_v1/conv3/Conv2D"
  op: "Conv2D"
  input: "resnet_v1_101/block1/unit_2/bottleneck_v1/conv2/Relu"
  input: "resnet_v1_101/block1/unit_2/bottleneck_v1/conv3/weights/read"
  attr {
    key: "T"
    value {
      type: DT_FLOAT
    }
  }
  attr {
    key: "data_format"
    value {
      s: "NHWC"
    }
  }
  attr {
    key: "dilations"
    value {
      list {
        i: 1
        i: 1
        i: 1
        i: 1
      }
    }
  }
  attr {
    key: "explicit_paddings"
    value {
      list {
      }
    }
  }
  attr {
    key: "padding"
    value {
      s: "SAME"
    }
  }
  attr {
    key: "strides"
    value {
      list {
        i: 1
        i: 1
        i: 1
        i: 1
      }
    }
  }
  attr {
    key: "use_cudnn_on_gpu"
    value {
      b: true
    }
  }
}
node {
  name: "resnet_v1_101/block1/unit_2/bottleneck_v1/conv3/BatchNorm/gamma/Initializer/ones"
  op: "Const"
  attr {
    key: "_class"
    value {
      list {
        s: "loc:@resnet_v1_101/block1/unit_2/bottleneck_v1/conv3/BatchNorm/gamma"
      }
    }
  }
  attr {
    key: "dtype"
    value {
      type: DT_FLOAT
    }
  }
  attr {
    key: "value"
    value {
      tensor {
        dtype: DT_FLOAT
        tensor_shape {
          dim {
            size: 256
          }
        }
        float_val: 1.0
      }
    }
  }
}
node {
  name: "resnet_v1_101/block1/unit_2/bottleneck_v1/conv3/BatchNorm/gamma"
  op: "VariableV2"
  attr {
    key: "_class"
    value {
      list {
        s: "loc:@resnet_v1_101/block1/unit_2/bottleneck_v1/conv3/BatchNorm/gamma"
      }
    }
  }
  attr {
    key: "container"
    value {
      s: ""
    }
  }
  attr {
    key: "dtype"
    value {
      type: DT_FLOAT
    }
  }
  attr {
    key: "shape"
    value {
      shape {
        dim {
          size: 256
        }
      }
    }
  }
  attr {
    key: "shared_name"
    value {
      s: ""
    }
  }
}
node {
  name: "resnet_v1_101/block1/unit_2/bottleneck_v1/conv3/BatchNorm/gamma/Assign"
  op: "Assign"
  input: "resnet_v1_101/block1/unit_2/bottleneck_v1/conv3/BatchNorm/gamma"
  input: "resnet_v1_101/block1/unit_2/bottleneck_v1/conv3/BatchNorm/gamma/Initializer/ones"
  attr {
    key: "T"
    value {
      type: DT_FLOAT
    }
  }
  attr {
    key: "_class"
    value {
      list {
        s: "loc:@resnet_v1_101/block1/unit_2/bottleneck_v1/conv3/BatchNorm/gamma"
      }
    }
  }
  attr {
    key: "use_locking"
    value {
      b: true
    }
  }
  attr {
    key: "validate_shape"
    value {
      b: true
    }
  }
}
node {
  name: "resnet_v1_101/block1/unit_2/bottleneck_v1/conv3/BatchNorm/gamma/read"
  op: "Identity"
  input: "resnet_v1_101/block1/unit_2/bottleneck_v1/conv3/BatchNorm/gamma"
  attr {
    key: "T"
    value {
      type: DT_FLOAT
    }
  }
  attr {
    key: "_class"
    value {
      list {
        s: "loc:@resnet_v1_101/block1/unit_2/bottleneck_v1/conv3/BatchNorm/gamma"
      }
    }
  }
}
node {
  name: "resnet_v1_101/block1/unit_2/bottleneck_v1/conv3/BatchNorm/beta/Initializer/zeros"
  op: "Const"
  attr {
    key: "_class"
    value {
      list {
        s: "loc:@resnet_v1_101/block1/unit_2/bottleneck_v1/conv3/BatchNorm/beta"
      }
    }
  }
  attr {
    key: "dtype"
    value {
      type: DT_FLOAT
    }
  }
  attr {
    key: "value"
    value {
      tensor {
        dtype: DT_FLOAT
        tensor_shape {
          dim {
            size: 256
          }
        }
        float_val: 0.0
      }
    }
  }
}
node {
  name: "resnet_v1_101/block1/unit_2/bottleneck_v1/conv3/BatchNorm/beta"
  op: "VariableV2"
  attr {
    key: "_class"
    value {
      list {
        s: "loc:@resnet_v1_101/block1/unit_2/bottleneck_v1/conv3/BatchNorm/beta"
      }
    }
  }
  attr {
    key: "container"
    value {
      s: ""
    }
  }
  attr {
    key: "dtype"
    value {
      type: DT_FLOAT
    }
  }
  attr {
    key: "shape"
    value {
      shape {
        dim {
          size: 256
        }
      }
    }
  }
  attr {
    key: "shared_name"
    value {
      s: ""
    }
  }
}
node {
  name: "resnet_v1_101/block1/unit_2/bottleneck_v1/conv3/BatchNorm/beta/Assign"
  op: "Assign"
  input: "resnet_v1_101/block1/unit_2/bottleneck_v1/conv3/BatchNorm/beta"
  input: "resnet_v1_101/block1/unit_2/bottleneck_v1/conv3/BatchNorm/beta/Initializer/zeros"
  attr {
    key: "T"
    value {
      type: DT_FLOAT
    }
  }
  attr {
    key: "_class"
    value {
      list {
        s: "loc:@resnet_v1_101/block1/unit_2/bottleneck_v1/conv3/BatchNorm/beta"
      }
    }
  }
  attr {
    key: "use_locking"
    value {
      b: true
    }
  }
  attr {
    key: "validate_shape"
    value {
      b: true
    }
  }
}
node {
  name: "resnet_v1_101/block1/unit_2/bottleneck_v1/conv3/BatchNorm/beta/read"
  op: "Identity"
  input: "resnet_v1_101/block1/unit_2/bottleneck_v1/conv3/BatchNorm/beta"
  attr {
    key: "T"
    value {
      type: DT_FLOAT
    }
  }
  attr {
    key: "_class"
    value {
      list {
        s: "loc:@resnet_v1_101/block1/unit_2/bottleneck_v1/conv3/BatchNorm/beta"
      }
    }
  }
}
node {
  name: "resnet_v1_101/block1/unit_2/bottleneck_v1/conv3/BatchNorm/moving_mean/Initializer/zeros"
  op: "Const"
  attr {
    key: "_class"
    value {
      list {
        s: "loc:@resnet_v1_101/block1/unit_2/bottleneck_v1/conv3/BatchNorm/moving_mean"
      }
    }
  }
  attr {
    key: "dtype"
    value {
      type: DT_FLOAT
    }
  }
  attr {
    key: "value"
    value {
      tensor {
        dtype: DT_FLOAT
        tensor_shape {
          dim {
            size: 256
          }
        }
        float_val: 0.0
      }
    }
  }
}
node {
  name: "resnet_v1_101/block1/unit_2/bottleneck_v1/conv3/BatchNorm/moving_mean"
  op: "VariableV2"
  attr {
    key: "_class"
    value {
      list {
        s: "loc:@resnet_v1_101/block1/unit_2/bottleneck_v1/conv3/BatchNorm/moving_mean"
      }
    }
  }
  attr {
    key: "container"
    value {
      s: ""
    }
  }
  attr {
    key: "dtype"
    value {
      type: DT_FLOAT
    }
  }
  attr {
    key: "shape"
    value {
      shape {
        dim {
          size: 256
        }
      }
    }
  }
  attr {
    key: "shared_name"
    value {
      s: ""
    }
  }
}
node {
  name: "resnet_v1_101/block1/unit_2/bottleneck_v1/conv3/BatchNorm/moving_mean/Assign"
  op: "Assign"
  input: "resnet_v1_101/block1/unit_2/bottleneck_v1/conv3/BatchNorm/moving_mean"
  input: "resnet_v1_101/block1/unit_2/bottleneck_v1/conv3/BatchNorm/moving_mean/Initializer/zeros"
  attr {
    key: "T"
    value {
      type: DT_FLOAT
    }
  }
  attr {
    key: "_class"
    value {
      list {
        s: "loc:@resnet_v1_101/block1/unit_2/bottleneck_v1/conv3/BatchNorm/moving_mean"
      }
    }
  }
  attr {
    key: "use_locking"
    value {
      b: true
    }
  }
  attr {
    key: "validate_shape"
    value {
      b: true
    }
  }
}
node {
  name: "resnet_v1_101/block1/unit_2/bottleneck_v1/conv3/BatchNorm/moving_mean/read"
  op: "Identity"
  input: "resnet_v1_101/block1/unit_2/bottleneck_v1/conv3/BatchNorm/moving_mean"
  attr {
    key: "T"
    value {
      type: DT_FLOAT
    }
  }
  attr {
    key: "_class"
    value {
      list {
        s: "loc:@resnet_v1_101/block1/unit_2/bottleneck_v1/conv3/BatchNorm/moving_mean"
      }
    }
  }
}
node {
  name: "resnet_v1_101/block1/unit_2/bottleneck_v1/conv3/BatchNorm/moving_variance/Initializer/ones"
  op: "Const"
  attr {
    key: "_class"
    value {
      list {
        s: "loc:@resnet_v1_101/block1/unit_2/bottleneck_v1/conv3/BatchNorm/moving_variance"
      }
    }
  }
  attr {
    key: "dtype"
    value {
      type: DT_FLOAT
    }
  }
  attr {
    key: "value"
    value {
      tensor {
        dtype: DT_FLOAT
        tensor_shape {
          dim {
            size: 256
          }
        }
        float_val: 1.0
      }
    }
  }
}
node {
  name: "resnet_v1_101/block1/unit_2/bottleneck_v1/conv3/BatchNorm/moving_variance"
  op: "VariableV2"
  attr {
    key: "_class"
    value {
      list {
        s: "loc:@resnet_v1_101/block1/unit_2/bottleneck_v1/conv3/BatchNorm/moving_variance"
      }
    }
  }
  attr {
    key: "container"
    value {
      s: ""
    }
  }
  attr {
    key: "dtype"
    value {
      type: DT_FLOAT
    }
  }
  attr {
    key: "shape"
    value {
      shape {
        dim {
          size: 256
        }
      }
    }
  }
  attr {
    key: "shared_name"
    value {
      s: ""
    }
  }
}
node {
  name: "resnet_v1_101/block1/unit_2/bottleneck_v1/conv3/BatchNorm/moving_variance/Assign"
  op: "Assign"
  input: "resnet_v1_101/block1/unit_2/bottleneck_v1/conv3/BatchNorm/moving_variance"
  input: "resnet_v1_101/block1/unit_2/bottleneck_v1/conv3/BatchNorm/moving_variance/Initializer/ones"
  attr {
    key: "T"
    value {
      type: DT_FLOAT
    }
  }
  attr {
    key: "_class"
    value {
      list {
        s: "loc:@resnet_v1_101/block1/unit_2/bottleneck_v1/conv3/BatchNorm/moving_variance"
      }
    }
  }
  attr {
    key: "use_locking"
    value {
      b: true
    }
  }
  attr {
    key: "validate_shape"
    value {
      b: true
    }
  }
}
node {
  name: "resnet_v1_101/block1/unit_2/bottleneck_v1/conv3/BatchNorm/moving_variance/read"
  op: "Identity"
  input: "resnet_v1_101/block1/unit_2/bottleneck_v1/conv3/BatchNorm/moving_variance"
  attr {
    key: "T"
    value {
      type: DT_FLOAT
    }
  }
  attr {
    key: "_class"
    value {
      list {
        s: "loc:@resnet_v1_101/block1/unit_2/bottleneck_v1/conv3/BatchNorm/moving_variance"
      }
    }
  }
}
node {
  name: "resnet_v1_101/block1/unit_2/bottleneck_v1/conv3/BatchNorm/FusedBatchNormV3"
  op: "FusedBatchNormV3"
  input: "resnet_v1_101/block1/unit_2/bottleneck_v1/conv3/Conv2D"
  input: "resnet_v1_101/block1/unit_2/bottleneck_v1/conv3/BatchNorm/gamma/read"
  input: "resnet_v1_101/block1/unit_2/bottleneck_v1/conv3/BatchNorm/beta/read"
  input: "resnet_v1_101/block1/unit_2/bottleneck_v1/conv3/BatchNorm/moving_mean/read"
  input: "resnet_v1_101/block1/unit_2/bottleneck_v1/conv3/BatchNorm/moving_variance/read"
  attr {
    key: "T"
    value {
      type: DT_FLOAT
    }
  }
  attr {
    key: "U"
    value {
      type: DT_FLOAT
    }
  }
  attr {
    key: "data_format"
    value {
      s: "NHWC"
    }
  }
  attr {
    key: "epsilon"
    value {
      f: 1.0009999641624745e-05
    }
  }
  attr {
    key: "is_training"
    value {
      b: false
    }
  }
}
node {
  name: "resnet_v1_101/block1/unit_2/bottleneck_v1/conv3/BatchNorm/Const"
  op: "Const"
  attr {
    key: "dtype"
    value {
      type: DT_FLOAT
    }
  }
  attr {
    key: "value"
    value {
      tensor {
        dtype: DT_FLOAT
        tensor_shape {
        }
        float_val: 0.996999979019165
      }
    }
  }
}
node {
  name: "resnet_v1_101/block1/unit_2/bottleneck_v1/add"
  op: "AddV2"
  input: "resnet_v1_101/block1/unit_1/bottleneck_v1/Relu"
  input: "resnet_v1_101/block1/unit_2/bottleneck_v1/conv3/BatchNorm/FusedBatchNormV3"
  attr {
    key: "T"
    value {
      type: DT_FLOAT
    }
  }
}
node {
  name: "resnet_v1_101/block1/unit_2/bottleneck_v1/Relu"
  op: "Relu"
  input: "resnet_v1_101/block1/unit_2/bottleneck_v1/add"
  attr {
    key: "T"
    value {
      type: DT_FLOAT
    }
  }
}
node {
  name: "resnet_v1_101/block1/unit_3/bottleneck_v1/shortcut/MaxPool"
  op: "MaxPool"
  input: "resnet_v1_101/block1/unit_2/bottleneck_v1/Relu"
  attr {
    key: "T"
    value {
      type: DT_FLOAT
    }
  }
  attr {
    key: "data_format"
    value {
      s: "NHWC"
    }
  }
  attr {
    key: "ksize"
    value {
      list {
        i: 1
        i: 1
        i: 1
        i: 1
      }
    }
  }
  attr {
    key: "padding"
    value {
      s: "SAME"
    }
  }
  attr {
    key: "strides"
    value {
      list {
        i: 1
        i: 2
        i: 2
        i: 1
      }
    }
  }
}
node {
  name: "resnet_v1_101/block1/unit_3/bottleneck_v1/conv1/weights/Initializer/truncated_normal/shape"
  op: "Const"
  attr {
    key: "_class"
    value {
      list {
        s: "loc:@resnet_v1_101/block1/unit_3/bottleneck_v1/conv1/weights"
      }
    }
  }
  attr {
    key: "dtype"
    value {
      type: DT_INT32
    }
  }
  attr {
    key: "value"
    value {
      tensor {
        dtype: DT_INT32
        tensor_shape {
          dim {
            size: 4
          }
        }
        tensor_content: "\001\000\000\000\001\000\000\000\000\001\000\000@\000\000\000"
      }
    }
  }
}
node {
  name: "resnet_v1_101/block1/unit_3/bottleneck_v1/conv1/weights/Initializer/truncated_normal/mean"
  op: "Const"
  attr {
    key: "_class"
    value {
      list {
        s: "loc:@resnet_v1_101/block1/unit_3/bottleneck_v1/conv1/weights"
      }
    }
  }
  attr {
    key: "dtype"
    value {
      type: DT_FLOAT
    }
  }
  attr {
    key: "value"
    value {
      tensor {
        dtype: DT_FLOAT
        tensor_shape {
        }
        float_val: 0.0
      }
    }
  }
}
node {
  name: "resnet_v1_101/block1/unit_3/bottleneck_v1/conv1/weights/Initializer/truncated_normal/stddev"
  op: "Const"
  attr {
    key: "_class"
    value {
      list {
        s: "loc:@resnet_v1_101/block1/unit_3/bottleneck_v1/conv1/weights"
      }
    }
  }
  attr {
    key: "dtype"
    value {
      type: DT_FLOAT
    }
  }
  attr {
    key: "value"
    value {
      tensor {
        dtype: DT_FLOAT
        tensor_shape {
        }
        float_val: 0.10077822208404541
      }
    }
  }
}
node {
  name: "resnet_v1_101/block1/unit_3/bottleneck_v1/conv1/weights/Initializer/truncated_normal/TruncatedNormal"
  op: "TruncatedNormal"
  input: "resnet_v1_101/block1/unit_3/bottleneck_v1/conv1/weights/Initializer/truncated_normal/shape"
  attr {
    key: "T"
    value {
      type: DT_INT32
    }
  }
  attr {
    key: "_class"
    value {
      list {
        s: "loc:@resnet_v1_101/block1/unit_3/bottleneck_v1/conv1/weights"
      }
    }
  }
  attr {
    key: "dtype"
    value {
      type: DT_FLOAT
    }
  }
  attr {
    key: "seed"
    value {
      i: 0
    }
  }
  attr {
    key: "seed2"
    value {
      i: 0
    }
  }
}
node {
  name: "resnet_v1_101/block1/unit_3/bottleneck_v1/conv1/weights/Initializer/truncated_normal/mul"
  op: "Mul"
  input: "resnet_v1_101/block1/unit_3/bottleneck_v1/conv1/weights/Initializer/truncated_normal/TruncatedNormal"
  input: "resnet_v1_101/block1/unit_3/bottleneck_v1/conv1/weights/Initializer/truncated_normal/stddev"
  attr {
    key: "T"
    value {
      type: DT_FLOAT
    }
  }
  attr {
    key: "_class"
    value {
      list {
        s: "loc:@resnet_v1_101/block1/unit_3/bottleneck_v1/conv1/weights"
      }
    }
  }
}
node {
  name: "resnet_v1_101/block1/unit_3/bottleneck_v1/conv1/weights/Initializer/truncated_normal"
  op: "Add"
  input: "resnet_v1_101/block1/unit_3/bottleneck_v1/conv1/weights/Initializer/truncated_normal/mul"
  input: "resnet_v1_101/block1/unit_3/bottleneck_v1/conv1/weights/Initializer/truncated_normal/mean"
  attr {
    key: "T"
    value {
      type: DT_FLOAT
    }
  }
  attr {
    key: "_class"
    value {
      list {
        s: "loc:@resnet_v1_101/block1/unit_3/bottleneck_v1/conv1/weights"
      }
    }
  }
}
node {
  name: "resnet_v1_101/block1/unit_3/bottleneck_v1/conv1/weights"
  op: "VariableV2"
  attr {
    key: "_class"
    value {
      list {
        s: "loc:@resnet_v1_101/block1/unit_3/bottleneck_v1/conv1/weights"
      }
    }
  }
  attr {
    key: "container"
    value {
      s: ""
    }
  }
  attr {
    key: "dtype"
    value {
      type: DT_FLOAT
    }
  }
  attr {
    key: "shape"
    value {
      shape {
        dim {
          size: 1
        }
        dim {
          size: 1
        }
        dim {
          size: 256
        }
        dim {
          size: 64
        }
      }
    }
  }
  attr {
    key: "shared_name"
    value {
      s: ""
    }
  }
}
node {
  name: "resnet_v1_101/block1/unit_3/bottleneck_v1/conv1/weights/Assign"
  op: "Assign"
  input: "resnet_v1_101/block1/unit_3/bottleneck_v1/conv1/weights"
  input: "resnet_v1_101/block1/unit_3/bottleneck_v1/conv1/weights/Initializer/truncated_normal"
  attr {
    key: "T"
    value {
      type: DT_FLOAT
    }
  }
  attr {
    key: "_class"
    value {
      list {
        s: "loc:@resnet_v1_101/block1/unit_3/bottleneck_v1/conv1/weights"
      }
    }
  }
  attr {
    key: "use_locking"
    value {
      b: true
    }
  }
  attr {
    key: "validate_shape"
    value {
      b: true
    }
  }
}
node {
  name: "resnet_v1_101/block1/unit_3/bottleneck_v1/conv1/weights/read"
  op: "Identity"
  input: "resnet_v1_101/block1/unit_3/bottleneck_v1/conv1/weights"
  attr {
    key: "T"
    value {
      type: DT_FLOAT
    }
  }
  attr {
    key: "_class"
    value {
      list {
        s: "loc:@resnet_v1_101/block1/unit_3/bottleneck_v1/conv1/weights"
      }
    }
  }
}
node {
  name: "resnet_v1_101/block1/unit_3/bottleneck_v1/conv1/kernel/Regularizer/l2_regularizer/scale"
  op: "Const"
  attr {
    key: "dtype"
    value {
      type: DT_FLOAT
    }
  }
  attr {
    key: "value"
    value {
      tensor {
        dtype: DT_FLOAT
        tensor_shape {
        }
        float_val: 9.999999747378752e-05
      }
    }
  }
}
node {
  name: "resnet_v1_101/block1/unit_3/bottleneck_v1/conv1/kernel/Regularizer/l2_regularizer/L2Loss"
  op: "L2Loss"
  input: "resnet_v1_101/block1/unit_3/bottleneck_v1/conv1/weights/read"
  attr {
    key: "T"
    value {
      type: DT_FLOAT
    }
  }
}
node {
  name: "resnet_v1_101/block1/unit_3/bottleneck_v1/conv1/kernel/Regularizer/l2_regularizer"
  op: "Mul"
  input: "resnet_v1_101/block1/unit_3/bottleneck_v1/conv1/kernel/Regularizer/l2_regularizer/scale"
  input: "resnet_v1_101/block1/unit_3/bottleneck_v1/conv1/kernel/Regularizer/l2_regularizer/L2Loss"
  attr {
    key: "T"
    value {
      type: DT_FLOAT
    }
  }
}
node {
  name: "resnet_v1_101/block1/unit_3/bottleneck_v1/conv1/dilation_rate"
  op: "Const"
  attr {
    key: "dtype"
    value {
      type: DT_INT32
    }
  }
  attr {
    key: "value"
    value {
      tensor {
        dtype: DT_INT32
        tensor_shape {
          dim {
            size: 2
          }
        }
        tensor_content: "\001\000\000\000\001\000\000\000"
      }
    }
  }
}
node {
  name: "resnet_v1_101/block1/unit_3/bottleneck_v1/conv1/Conv2D"
  op: "Conv2D"
  input: "resnet_v1_101/block1/unit_2/bottleneck_v1/Relu"
  input: "resnet_v1_101/block1/unit_3/bottleneck_v1/conv1/weights/read"
  attr {
    key: "T"
    value {
      type: DT_FLOAT
    }
  }
  attr {
    key: "data_format"
    value {
      s: "NHWC"
    }
  }
  attr {
    key: "dilations"
    value {
      list {
        i: 1
        i: 1
        i: 1
        i: 1
      }
    }
  }
  attr {
    key: "explicit_paddings"
    value {
      list {
      }
    }
  }
  attr {
    key: "padding"
    value {
      s: "SAME"
    }
  }
  attr {
    key: "strides"
    value {
      list {
        i: 1
        i: 1
        i: 1
        i: 1
      }
    }
  }
  attr {
    key: "use_cudnn_on_gpu"
    value {
      b: true
    }
  }
}
node {
  name: "resnet_v1_101/block1/unit_3/bottleneck_v1/conv1/BatchNorm/gamma/Initializer/ones"
  op: "Const"
  attr {
    key: "_class"
    value {
      list {
        s: "loc:@resnet_v1_101/block1/unit_3/bottleneck_v1/conv1/BatchNorm/gamma"
      }
    }
  }
  attr {
    key: "dtype"
    value {
      type: DT_FLOAT
    }
  }
  attr {
    key: "value"
    value {
      tensor {
        dtype: DT_FLOAT
        tensor_shape {
          dim {
            size: 64
          }
        }
        float_val: 1.0
      }
    }
  }
}
node {
  name: "resnet_v1_101/block1/unit_3/bottleneck_v1/conv1/BatchNorm/gamma"
  op: "VariableV2"
  attr {
    key: "_class"
    value {
      list {
        s: "loc:@resnet_v1_101/block1/unit_3/bottleneck_v1/conv1/BatchNorm/gamma"
      }
    }
  }
  attr {
    key: "container"
    value {
      s: ""
    }
  }
  attr {
    key: "dtype"
    value {
      type: DT_FLOAT
    }
  }
  attr {
    key: "shape"
    value {
      shape {
        dim {
          size: 64
        }
      }
    }
  }
  attr {
    key: "shared_name"
    value {
      s: ""
    }
  }
}
node {
  name: "resnet_v1_101/block1/unit_3/bottleneck_v1/conv1/BatchNorm/gamma/Assign"
  op: "Assign"
  input: "resnet_v1_101/block1/unit_3/bottleneck_v1/conv1/BatchNorm/gamma"
  input: "resnet_v1_101/block1/unit_3/bottleneck_v1/conv1/BatchNorm/gamma/Initializer/ones"
  attr {
    key: "T"
    value {
      type: DT_FLOAT
    }
  }
  attr {
    key: "_class"
    value {
      list {
        s: "loc:@resnet_v1_101/block1/unit_3/bottleneck_v1/conv1/BatchNorm/gamma"
      }
    }
  }
  attr {
    key: "use_locking"
    value {
      b: true
    }
  }
  attr {
    key: "validate_shape"
    value {
      b: true
    }
  }
}
node {
  name: "resnet_v1_101/block1/unit_3/bottleneck_v1/conv1/BatchNorm/gamma/read"
  op: "Identity"
  input: "resnet_v1_101/block1/unit_3/bottleneck_v1/conv1/BatchNorm/gamma"
  attr {
    key: "T"
    value {
      type: DT_FLOAT
    }
  }
  attr {
    key: "_class"
    value {
      list {
        s: "loc:@resnet_v1_101/block1/unit_3/bottleneck_v1/conv1/BatchNorm/gamma"
      }
    }
  }
}
node {
  name: "resnet_v1_101/block1/unit_3/bottleneck_v1/conv1/BatchNorm/beta/Initializer/zeros"
  op: "Const"
  attr {
    key: "_class"
    value {
      list {
        s: "loc:@resnet_v1_101/block1/unit_3/bottleneck_v1/conv1/BatchNorm/beta"
      }
    }
  }
  attr {
    key: "dtype"
    value {
      type: DT_FLOAT
    }
  }
  attr {
    key: "value"
    value {
      tensor {
        dtype: DT_FLOAT
        tensor_shape {
          dim {
            size: 64
          }
        }
        float_val: 0.0
      }
    }
  }
}
node {
  name: "resnet_v1_101/block1/unit_3/bottleneck_v1/conv1/BatchNorm/beta"
  op: "VariableV2"
  attr {
    key: "_class"
    value {
      list {
        s: "loc:@resnet_v1_101/block1/unit_3/bottleneck_v1/conv1/BatchNorm/beta"
      }
    }
  }
  attr {
    key: "container"
    value {
      s: ""
    }
  }
  attr {
    key: "dtype"
    value {
      type: DT_FLOAT
    }
  }
  attr {
    key: "shape"
    value {
      shape {
        dim {
          size: 64
        }
      }
    }
  }
  attr {
    key: "shared_name"
    value {
      s: ""
    }
  }
}
node {
  name: "resnet_v1_101/block1/unit_3/bottleneck_v1/conv1/BatchNorm/beta/Assign"
  op: "Assign"
  input: "resnet_v1_101/block1/unit_3/bottleneck_v1/conv1/BatchNorm/beta"
  input: "resnet_v1_101/block1/unit_3/bottleneck_v1/conv1/BatchNorm/beta/Initializer/zeros"
  attr {
    key: "T"
    value {
      type: DT_FLOAT
    }
  }
  attr {
    key: "_class"
    value {
      list {
…
  input: "^save/Assign_385"
  input: "^save/Assign_386"
  input: "^save/Assign_387"
  input: "^save/Assign_388"
  input: "^save/Assign_389"
  input: "^save/Assign_39"
  input: "^save/Assign_390"
  input: "^save/Assign_391"
  input: "^save/Assign_392"
  input: "^save/Assign_393"
  input: "^save/Assign_394"
  input: "^save/Assign_395"
  input: "^save/Assign_396"
  input: "^save/Assign_397"
  input: "^save/Assign_398"
  input: "^save/Assign_399"
  input: "^save/Assign_4"
  input: "^save/Assign_40"
  input: "^save/Assign_400"
  input: "^save/Assign_401"
  input: "^save/Assign_402"
  input: "^save/Assign_403"
  input: "^save/Assign_404"
  input: "^save/Assign_405"
  input: "^save/Assign_406"
  input: "^save/Assign_407"
  input: "^save/Assign_408"
  input: "^save/Assign_409"
  input: "^save/Assign_41"
  input: "^save/Assign_410"
  input: "^save/Assign_411"
  input: "^save/Assign_412"
  input: "^save/Assign_413"
  input: "^save/Assign_414"
  input: "^save/Assign_415"
  input: "^save/Assign_416"
  input: "^save/Assign_417"
  input: "^save/Assign_418"
  input: "^save/Assign_419"
  input: "^save/Assign_42"
  input: "^save/Assign_420"
  input: "^save/Assign_421"
  input: "^save/Assign_422"
  input: "^save/Assign_423"
  input: "^save/Assign_424"
  input: "^save/Assign_425"
  input: "^save/Assign_426"
  input: "^save/Assign_427"
  input: "^save/Assign_428"
  input: "^save/Assign_429"
  input: "^save/Assign_43"
  input: "^save/Assign_430"
  input: "^save/Assign_431"
  input: "^save/Assign_432"
  input: "^save/Assign_433"
  input: "^save/Assign_434"
  input: "^save/Assign_435"
  input: "^save/Assign_436"
  input: "^save/Assign_437"
  input: "^save/Assign_438"
  input: "^save/Assign_439"
  input: "^save/Assign_44"
  input: "^save/Assign_440"
  input: "^save/Assign_441"
  input: "^save/Assign_442"
  input: "^save/Assign_443"
  input: "^save/Assign_444"
  input: "^save/Assign_445"
  input: "^save/Assign_446"
  input: "^save/Assign_447"
  input: "^save/Assign_448"
  input: "^save/Assign_449"
  input: "^save/Assign_45"
  input: "^save/Assign_450"
  input: "^save/Assign_451"
  input: "^save/Assign_452"
  input: "^save/Assign_453"
  input: "^save/Assign_454"
  input: "^save/Assign_455"
  input: "^save/Assign_456"
  input: "^save/Assign_457"
  input: "^save/Assign_458"
  input: "^save/Assign_459"
  input: "^save/Assign_46"
  input: "^save/Assign_460"
  input: "^save/Assign_461"
  input: "^save/Assign_462"
  input: "^save/Assign_463"
  input: "^save/Assign_464"
  input: "^save/Assign_465"
  input: "^save/Assign_466"
  input: "^save/Assign_467"
  input: "^save/Assign_468"
  input: "^save/Assign_469"
  input: "^save/Assign_47"
  input: "^save/Assign_470"
  input: "^save/Assign_471"
  input: "^save/Assign_472"
  input: "^save/Assign_473"
  input: "^save/Assign_474"
  input: "^save/Assign_475"
  input: "^save/Assign_476"
  input: "^save/Assign_477"
  input: "^save/Assign_478"
  input: "^save/Assign_479"
  input: "^save/Assign_48"
  input: "^save/Assign_480"
  input: "^save/Assign_481"
  input: "^save/Assign_482"
  input: "^save/Assign_483"
  input: "^save/Assign_484"
  input: "^save/Assign_485"
  input: "^save/Assign_486"
  input: "^save/Assign_487"
  input: "^save/Assign_488"
  input: "^save/Assign_489"
  input: "^save/Assign_49"
  input: "^save/Assign_490"
  input: "^save/Assign_491"
  input: "^save/Assign_492"
  input: "^save/Assign_493"
  input: "^save/Assign_494"
  input: "^save/Assign_495"
  input: "^save/Assign_496"
  input: "^save/Assign_497"
  input: "^save/Assign_498"
  input: "^save/Assign_499"
  input: "^save/Assign_5"
  input: "^save/Assign_50"
  input: "^save/Assign_500"
  input: "^save/Assign_501"
  input: "^save/Assign_502"
  input: "^save/Assign_503"
  input: "^save/Assign_504"
  input: "^save/Assign_505"
  input: "^save/Assign_506"
  input: "^save/Assign_507"
  input: "^save/Assign_508"
  input: "^save/Assign_509"
  input: "^save/Assign_51"
  input: "^save/Assign_510"
  input: "^save/Assign_511"
  input: "^save/Assign_512"
  input: "^save/Assign_513"
  input: "^save/Assign_514"
  input: "^save/Assign_515"
  input: "^save/Assign_516"
  input: "^save/Assign_517"
  input: "^save/Assign_518"
  input: "^save/Assign_519"
  input: "^save/Assign_52"
  input: "^save/Assign_520"
  input: "^save/Assign_521"
  input: "^save/Assign_522"
  input: "^save/Assign_523"
  input: "^save/Assign_53"
  input: "^save/Assign_54"
  input: "^save/Assign_55"
  input: "^save/Assign_56"
  input: "^save/Assign_57"
  input: "^save/Assign_58"
  input: "^save/Assign_59"
  input: "^save/Assign_6"
  input: "^save/Assign_60"
  input: "^save/Assign_61"
  input: "^save/Assign_62"
  input: "^save/Assign_63"
  input: "^save/Assign_64"
  input: "^save/Assign_65"
  input: "^save/Assign_66"
  input: "^save/Assign_67"
  input: "^save/Assign_68"
  input: "^save/Assign_69"
  input: "^save/Assign_7"
  input: "^save/Assign_70"
  input: "^save/Assign_71"
  input: "^save/Assign_72"
  input: "^save/Assign_73"
  input: "^save/Assign_74"
  input: "^save/Assign_75"
  input: "^save/Assign_76"
  input: "^save/Assign_77"
  input: "^save/Assign_78"
  input: "^save/Assign_79"
  input: "^save/Assign_8"
  input: "^save/Assign_80"
  input: "^save/Assign_81"
  input: "^save/Assign_82"
  input: "^save/Assign_83"
  input: "^save/Assign_84"
  input: "^save/Assign_85"
  input: "^save/Assign_86"
  input: "^save/Assign_87"
  input: "^save/Assign_88"
  input: "^save/Assign_89"
  input: "^save/Assign_9"
  input: "^save/Assign_90"
  input: "^save/Assign_91"
  input: "^save/Assign_92"
  input: "^save/Assign_93"
  input: "^save/Assign_94"
  input: "^save/Assign_95"
  input: "^save/Assign_96"
  input: "^save/Assign_97"
  input: "^save/Assign_98"
  input: "^save/Assign_99"
}
node {
  name: "init"
  op: "NoOp"
  input: "^pose/locref_pred/block4/biases/Assign"
  input: "^pose/locref_pred/block4/weights/Assign"
  input: "^pose/part_pred/block4/biases/Assign"
  input: "^pose/part_pred/block4/weights/Assign"
  input: "^resnet_v1_101/block1/unit_1/bottleneck_v1/conv1/BatchNorm/beta/Assign"
  input: "^resnet_v1_101/block1/unit_1/bottleneck_v1/conv1/BatchNorm/gamma/Assign"
  input: "^resnet_v1_101/block1/unit_1/bottleneck_v1/conv1/BatchNorm/moving_mean/Assign"
  input: "^resnet_v1_101/block1/unit_1/bottleneck_v1/conv1/BatchNorm/moving_variance/Assign"
  input: "^resnet_v1_101/block1/unit_1/bottleneck_v1/conv1/weights/Assign"
  input: "^resnet_v1_101/block1/unit_1/bottleneck_v1/conv2/BatchNorm/beta/Assign"
  input: "^resnet_v1_101/block1/unit_1/bottleneck_v1/conv2/BatchNorm/gamma/Assign"
  input: "^resnet_v1_101/block1/unit_1/bottleneck_v1/conv2/BatchNorm/moving_mean/Assign"
  input: "^resnet_v1_101/block1/unit_1/bottleneck_v1/conv2/BatchNorm/moving_variance/Assign"
  input: "^resnet_v1_101/block1/unit_1/bottleneck_v1/conv2/weights/Assign"
  input: "^resnet_v1_101/block1/unit_1/bottleneck_v1/conv3/BatchNorm/beta/Assign"
  input: "^resnet_v1_101/block1/unit_1/bottleneck_v1/conv3/BatchNorm/gamma/Assign"
  input: "^resnet_v1_101/block1/unit_1/bottleneck_v1/conv3/BatchNorm/moving_mean/Assign"
  input: "^resnet_v1_101/block1/unit_1/bottleneck_v1/conv3/BatchNorm/moving_variance/Assign"
  input: "^resnet_v1_101/block1/unit_1/bottleneck_v1/conv3/weights/Assign"
  input: "^resnet_v1_101/block1/unit_1/bottleneck_v1/shortcut/BatchNorm/beta/Assign"
  input: "^resnet_v1_101/block1/unit_1/bottleneck_v1/shortcut/BatchNorm/gamma/Assign"
  input: "^resnet_v1_101/block1/unit_1/bottleneck_v1/shortcut/BatchNorm/moving_mean/Assign"
  input: "^resnet_v1_101/block1/unit_1/bottleneck_v1/shortcut/BatchNorm/moving_variance/Assign"
  input: "^resnet_v1_101/block1/unit_1/bottleneck_v1/shortcut/weights/Assign"
  input: "^resnet_v1_101/block1/unit_2/bottleneck_v1/conv1/BatchNorm/beta/Assign"
  input: "^resnet_v1_101/block1/unit_2/bottleneck_v1/conv1/BatchNorm/gamma/Assign"
  input: "^resnet_v1_101/block1/unit_2/bottleneck_v1/conv1/BatchNorm/moving_mean/Assign"
  input: "^resnet_v1_101/block1/unit_2/bottleneck_v1/conv1/BatchNorm/moving_variance/Assign"
  input: "^resnet_v1_101/block1/unit_2/bottleneck_v1/conv1/weights/Assign"
  input: "^resnet_v1_101/block1/unit_2/bottleneck_v1/conv2/BatchNorm/beta/Assign"
  input: "^resnet_v1_101/block1/unit_2/bottleneck_v1/conv2/BatchNorm/gamma/Assign"
  input: "^resnet_v1_101/block1/unit_2/bottleneck_v1/conv2/BatchNorm/moving_mean/Assign"
  input: "^resnet_v1_101/block1/unit_2/bottleneck_v1/conv2/BatchNorm/moving_variance/Assign"
  input: "^resnet_v1_101/block1/unit_2/bottleneck_v1/conv2/weights/Assign"
  input: "^resnet_v1_101/block1/unit_2/bottleneck_v1/conv3/BatchNorm/beta/Assign"
  input: "^resnet_v1_101/block1/unit_2/bottleneck_v1/conv3/BatchNorm/gamma/Assign"
  input: "^resnet_v1_101/block1/unit_2/bottleneck_v1/conv3/BatchNorm/moving_mean/Assign"
  input: "^resnet_v1_101/block1/unit_2/bottleneck_v1/conv3/BatchNorm/moving_variance/Assign"
  input: "^resnet_v1_101/block1/unit_2/bottleneck_v1/conv3/weights/Assign"
  input: "^resnet_v1_101/block1/unit_3/bottleneck_v1/conv1/BatchNorm/beta/Assign"
  input: "^resnet_v1_101/block1/unit_3/bottleneck_v1/conv1/BatchNorm/gamma/Assign"
  input: "^resnet_v1_101/block1/unit_3/bottleneck_v1/conv1/BatchNorm/moving_mean/Assign"
  input: "^resnet_v1_101/block1/unit_3/bottleneck_v1/conv1/BatchNorm/moving_variance/Assign"
  input: "^resnet_v1_101/block1/unit_3/bottleneck_v1/conv1/weights/Assign"
  input: "^resnet_v1_101/block1/unit_3/bottleneck_v1/conv2/BatchNorm/beta/Assign"
  input: "^resnet_v1_101/block1/unit_3/bottleneck_v1/conv2/BatchNorm/gamma/Assign"
  input: "^resnet_v1_101/block1/unit_3/bottleneck_v1/conv2/BatchNorm/moving_mean/Assign"
  input: "^resnet_v1_101/block1/unit_3/bottleneck_v1/conv2/BatchNorm/moving_variance/Assign"
  input: "^resnet_v1_101/block1/unit_3/bottleneck_v1/conv2/weights/Assign"
  input: "^resnet_v1_101/block1/unit_3/bottleneck_v1/conv3/BatchNorm/beta/Assign"
  input: "^resnet_v1_101/block1/unit_3/bottleneck_v1/conv3/BatchNorm/gamma/Assign"
  input: "^resnet_v1_101/block1/unit_3/bottleneck_v1/conv3/BatchNorm/moving_mean/Assign"
  input: "^resnet_v1_101/block1/unit_3/bottleneck_v1/conv3/BatchNorm/moving_variance/Assign"
  input: "^resnet_v1_101/block1/unit_3/bottleneck_v1/conv3/weights/Assign"
  input: "^resnet_v1_101/block2/unit_1/bottleneck_v1/conv1/BatchNorm/beta/Assign"
  input: "^resnet_v1_101/block2/unit_1/bottleneck_v1/conv1/BatchNorm/gamma/Assign"
  input: "^resnet_v1_101/block2/unit_1/bottleneck_v1/conv1/BatchNorm/moving_mean/Assign"
  input: "^resnet_v1_101/block2/unit_1/bottleneck_v1/conv1/BatchNorm/moving_variance/Assign"
  input: "^resnet_v1_101/block2/unit_1/bottleneck_v1/conv1/weights/Assign"
  input: "^resnet_v1_101/block2/unit_1/bottleneck_v1/conv2/BatchNorm/beta/Assign"
  input: "^resnet_v1_101/block2/unit_1/bottleneck_v1/conv2/BatchNorm/gamma/Assign"
  input: "^resnet_v1_101/block2/unit_1/bottleneck_v1/conv2/BatchNorm/moving_mean/Assign"
  input: "^resnet_v1_101/block2/unit_1/bottleneck_v1/conv2/BatchNorm/moving_variance/Assign"
  input: "^resnet_v1_101/block2/unit_1/bottleneck_v1/conv2/weights/Assign"
  input: "^resnet_v1_101/block2/unit_1/bottleneck_v1/conv3/BatchNorm/beta/Assign"
  input: "^resnet_v1_101/block2/unit_1/bottleneck_v1/conv3/BatchNorm/gamma/Assign"
  input: "^resnet_v1_101/block2/unit_1/bottleneck_v1/conv3/BatchNorm/moving_mean/Assign"
  input: "^resnet_v1_101/block2/unit_1/bottleneck_v1/conv3/BatchNorm/moving_variance/Assign"
  input: "^resnet_v1_101/block2/unit_1/bottleneck_v1/conv3/weights/Assign"
  input: "^resnet_v1_101/block2/unit_1/bottleneck_v1/shortcut/BatchNorm/beta/Assign"
  input: "^resnet_v1_101/block2/unit_1/bottleneck_v1/shortcut/BatchNorm/gamma/Assign"
  input: "^resnet_v1_101/block2/unit_1/bottleneck_v1/shortcut/BatchNorm/moving_mean/Assign"
  input: "^resnet_v1_101/block2/unit_1/bottleneck_v1/shortcut/BatchNorm/moving_variance/Assign"
  input: "^resnet_v1_101/block2/unit_1/bottleneck_v1/shortcut/weights/Assign"
  input: "^resnet_v1_101/block2/unit_2/bottleneck_v1/conv1/BatchNorm/beta/Assign"
  input: "^resnet_v1_101/block2/unit_2/bottleneck_v1/conv1/BatchNorm/gamma/Assign"
  input: "^resnet_v1_101/block2/unit_2/bottleneck_v1/conv1/BatchNorm/moving_mean/Assign"
  input: "^resnet_v1_101/block2/unit_2/bottleneck_v1/conv1/BatchNorm/moving_variance/Assign"
  input: "^resnet_v1_101/block2/unit_2/bottleneck_v1/conv1/weights/Assign"
  input: "^resnet_v1_101/block2/unit_2/bottleneck_v1/conv2/BatchNorm/beta/Assign"
  input: "^resnet_v1_101/block2/unit_2/bottleneck_v1/conv2/BatchNorm/gamma/Assign"
  input: "^resnet_v1_101/block2/unit_2/bottleneck_v1/conv2/BatchNorm/moving_mean/Assign"
  input: "^resnet_v1_101/block2/unit_2/bottleneck_v1/conv2/BatchNorm/moving_variance/Assign"
  input: "^resnet_v1_101/block2/unit_2/bottleneck_v1/conv2/weights/Assign"
  input: "^resnet_v1_101/block2/unit_2/bottleneck_v1/conv3/BatchNorm/beta/Assign"
  input: "^resnet_v1_101/block2/unit_2/bottleneck_v1/conv3/BatchNorm/gamma/Assign"
  input: "^resnet_v1_101/block2/unit_2/bottleneck_v1/conv3/BatchNorm/moving_mean/Assign"
  input: "^resnet_v1_101/block2/unit_2/bottleneck_v1/conv3/BatchNorm/moving_variance/Assign"
  input: "^resnet_v1_101/block2/unit_2/bottleneck_v1/conv3/weights/Assign"
  input: "^resnet_v1_101/block2/unit_3/bottleneck_v1/conv1/BatchNorm/beta/Assign"
  input: "^resnet_v1_101/block2/unit_3/bottleneck_v1/conv1/BatchNorm/gamma/Assign"
  input: "^resnet_v1_101/block2/unit_3/bottleneck_v1/conv1/BatchNorm/moving_mean/Assign"
  input: "^resnet_v1_101/block2/unit_3/bottleneck_v1/conv1/BatchNorm/moving_variance/Assign"
  input: "^resnet_v1_101/block2/unit_3/bottleneck_v1/conv1/weights/Assign"
  input: "^resnet_v1_101/block2/unit_3/bottleneck_v1/conv2/BatchNorm/beta/Assign"
  input: "^resnet_v1_101/block2/unit_3/bottleneck_v1/conv2/BatchNorm/gamma/Assign"
  input: "^resnet_v1_101/block2/unit_3/bottleneck_v1/conv2/BatchNorm/moving_mean/Assign"
  input: "^resnet_v1_101/block2/unit_3/bottleneck_v1/conv2/BatchNorm/moving_variance/Assign"
  input: "^resnet_v1_101/block2/unit_3/bottleneck_v1/conv2/weights/Assign"
  input: "^resnet_v1_101/block2/unit_3/bottleneck_v1/conv3/BatchNorm/beta/Assign"
  input: "^resnet_v1_101/block2/unit_3/bottleneck_v1/conv3/BatchNorm/gamma/Assign"
  input: "^resnet_v1_101/block2/unit_3/bottleneck_v1/conv3/BatchNorm/moving_mean/Assign"
  input: "^resnet_v1_101/block2/unit_3/bottleneck_v1/conv3/BatchNorm/moving_variance/Assign"
  input: "^resnet_v1_101/block2/unit_3/bottleneck_v1/conv3/weights/Assign"
  input: "^resnet_v1_101/block2/unit_4/bottleneck_v1/conv1/BatchNorm/beta/Assign"
  input: "^resnet_v1_101/block2/unit_4/bottleneck_v1/conv1/BatchNorm/gamma/Assign"
  input: "^resnet_v1_101/block2/unit_4/bottleneck_v1/conv1/BatchNorm/moving_mean/Assign"
  input: "^resnet_v1_101/block2/unit_4/bottleneck_v1/conv1/BatchNorm/moving_variance/Assign"
  input: "^resnet_v1_101/block2/unit_4/bottleneck_v1/conv1/weights/Assign"
  input: "^resnet_v1_101/block2/unit_4/bottleneck_v1/conv2/BatchNorm/beta/Assign"
  input: "^resnet_v1_101/block2/unit_4/bottleneck_v1/conv2/BatchNorm/gamma/Assign"
  input: "^resnet_v1_101/block2/unit_4/bottleneck_v1/conv2/BatchNorm/moving_mean/Assign"
  input: "^resnet_v1_101/block2/unit_4/bottleneck_v1/conv2/BatchNorm/moving_variance/Assign"
  input: "^resnet_v1_101/block2/unit_4/bottleneck_v1/conv2/weights/Assign"
  input: "^resnet_v1_101/block2/unit_4/bottleneck_v1/conv3/BatchNorm/beta/Assign"
  input: "^resnet_v1_101/block2/unit_4/bottleneck_v1/conv3/BatchNorm/gamma/Assign"
  input: "^resnet_v1_101/block2/unit_4/bottleneck_v1/conv3/BatchNorm/moving_mean/Assign"
  input: "^resnet_v1_101/block2/unit_4/bottleneck_v1/conv3/BatchNorm/moving_variance/Assign"
  input: "^resnet_v1_101/block2/unit_4/bottleneck_v1/conv3/weights/Assign"
  input: "^resnet_v1_101/block3/unit_1/bottleneck_v1/conv1/BatchNorm/beta/Assign"
  input: "^resnet_v1_101/block3/unit_1/bottleneck_v1/conv1/BatchNorm/gamma/Assign"
  input: "^resnet_v1_101/block3/unit_1/bottleneck_v1/conv1/BatchNorm/moving_mean/Assign"
  input: "^resnet_v1_101/block3/unit_1/bottleneck_v1/conv1/BatchNorm/moving_variance/Assign"
  input: "^resnet_v1_101/block3/unit_1/bottleneck_v1/conv1/weights/Assign"
  input: "^resnet_v1_101/block3/unit_1/bottleneck_v1/conv2/BatchNorm/beta/Assign"
  input: "^resnet_v1_101/block3/unit_1/bottleneck_v1/conv2/BatchNorm/gamma/Assign"
  input: "^resnet_v1_101/block3/unit_1/bottleneck_v1/conv2/BatchNorm/moving_mean/Assign"
  input: "^resnet_v1_101/block3/unit_1/bottleneck_v1/conv2/BatchNorm/moving_variance/Assign"
  input: "^resnet_v1_101/block3/unit_1/bottleneck_v1/conv2/weights/Assign"
  input: "^resnet_v1_101/block3/unit_1/bottleneck_v1/conv3/BatchNorm/beta/Assign"
  input: "^resnet_v1_101/block3/unit_1/bottleneck_v1/conv3/BatchNorm/gamma/Assign"
  input: "^resnet_v1_101/block3/unit_1/bottleneck_v1/conv3/BatchNorm/moving_mean/Assign"
  input: "^resnet_v1_101/block3/unit_1/bottleneck_v1/conv3/BatchNorm/moving_variance/Assign"
  input: "^resnet_v1_101/block3/unit_1/bottleneck_v1/conv3/weights/Assign"
  input: "^resnet_v1_101/block3/unit_1/bottleneck_v1/shortcut/BatchNorm/beta/Assign"
  input: "^resnet_v1_101/block3/unit_1/bottleneck_v1/shortcut/BatchNorm/gamma/Assign"
  input: "^resnet_v1_101/block3/unit_1/bottleneck_v1/shortcut/BatchNorm/moving_mean/Assign"
  input: "^resnet_v1_101/block3/unit_1/bottleneck_v1/shortcut/BatchNorm/moving_variance/Assign"
  input: "^resnet_v1_101/block3/unit_1/bottleneck_v1/shortcut/weights/Assign"
  input: "^resnet_v1_101/block3/unit_10/bottleneck_v1/conv1/BatchNorm/beta/Assign"
  input: "^resnet_v1_101/block3/unit_10/bottleneck_v1/conv1/BatchNorm/gamma/Assign"
  input: "^resnet_v1_101/block3/unit_10/bottleneck_v1/conv1/BatchNorm/moving_mean/Assign"
  input: "^resnet_v1_101/block3/unit_10/bottleneck_v1/conv1/BatchNorm/moving_variance/Assign"
  input: "^resnet_v1_101/block3/unit_10/bottleneck_v1/conv1/weights/Assign"
  input: "^resnet_v1_101/block3/unit_10/bottleneck_v1/conv2/BatchNorm/beta/Assign"
  input: "^resnet_v1_101/block3/unit_10/bottleneck_v1/conv2/BatchNorm/gamma/Assign"
  input: "^resnet_v1_101/block3/unit_10/bottleneck_v1/conv2/BatchNorm/moving_mean/Assign"
  input: "^resnet_v1_101/block3/unit_10/bottleneck_v1/conv2/BatchNorm/moving_variance/Assign"
  input: "^resnet_v1_101/block3/unit_10/bottleneck_v1/conv2/weights/Assign"
  input: "^resnet_v1_101/block3/unit_10/bottleneck_v1/conv3/BatchNorm/beta/Assign"
  input: "^resnet_v1_101/block3/unit_10/bottleneck_v1/conv3/BatchNorm/gamma/Assign"
  input: "^resnet_v1_101/block3/unit_10/bottleneck_v1/conv3/BatchNorm/moving_mean/Assign"
  input: "^resnet_v1_101/block3/unit_10/bottleneck_v1/conv3/BatchNorm/moving_variance/Assign"
  input: "^resnet_v1_101/block3/unit_10/bottleneck_v1/conv3/weights/Assign"
  input: "^resnet_v1_101/block3/unit_11/bottleneck_v1/conv1/BatchNorm/beta/Assign"
  input: "^resnet_v1_101/block3/unit_11/bottleneck_v1/conv1/BatchNorm/gamma/Assign"
  input: "^resnet_v1_101/block3/unit_11/bottleneck_v1/conv1/BatchNorm/moving_mean/Assign"
  input: "^resnet_v1_101/block3/unit_11/bottleneck_v1/conv1/BatchNorm/moving_variance/Assign"
  input: "^resnet_v1_101/block3/unit_11/bottleneck_v1/conv1/weights/Assign"
  input: "^resnet_v1_101/block3/unit_11/bottleneck_v1/conv2/BatchNorm/beta/Assign"
  input: "^resnet_v1_101/block3/unit_11/bottleneck_v1/conv2/BatchNorm/gamma/Assign"
  input: "^resnet_v1_101/block3/unit_11/bottleneck_v1/conv2/BatchNorm/moving_mean/Assign"
  input: "^resnet_v1_101/block3/unit_11/bottleneck_v1/conv2/BatchNorm/moving_variance/Assign"
  input: "^resnet_v1_101/block3/unit_11/bottleneck_v1/conv2/weights/Assign"
  input: "^resnet_v1_101/block3/unit_11/bottleneck_v1/conv3/BatchNorm/beta/Assign"
  input: "^resnet_v1_101/block3/unit_11/bottleneck_v1/conv3/BatchNorm/gamma/Assign"
  input: "^resnet_v1_101/block3/unit_11/bottleneck_v1/conv3/BatchNorm/moving_mean/Assign"
  input: "^resnet_v1_101/block3/unit_11/bottleneck_v1/conv3/BatchNorm/moving_variance/Assign"
  input: "^resnet_v1_101/block3/unit_11/bottleneck_v1/conv3/weights/Assign"
  input: "^resnet_v1_101/block3/unit_12/bottleneck_v1/conv1/BatchNorm/beta/Assign"
  input: "^resnet_v1_101/block3/unit_12/bottleneck_v1/conv1/BatchNorm/gamma/Assign"
  input: "^resnet_v1_101/block3/unit_12/bottleneck_v1/conv1/BatchNorm/moving_mean/Assign"
  input: "^resnet_v1_101/block3/unit_12/bottleneck_v1/conv1/BatchNorm/moving_variance/Assign"
  input: "^resnet_v1_101/block3/unit_12/bottleneck_v1/conv1/weights/Assign"
  input: "^resnet_v1_101/block3/unit_12/bottleneck_v1/conv2/BatchNorm/beta/Assign"
  input: "^resnet_v1_101/block3/unit_12/bottleneck_v1/conv2/BatchNorm/gamma/Assign"
  input: "^resnet_v1_101/block3/unit_12/bottleneck_v1/conv2/BatchNorm/moving_mean/Assign"
  input: "^resnet_v1_101/block3/unit_12/bottleneck_v1/conv2/BatchNorm/moving_variance/Assign"
  input: "^resnet_v1_101/block3/unit_12/bottleneck_v1/conv2/weights/Assign"
  input: "^resnet_v1_101/block3/unit_12/bottleneck_v1/conv3/BatchNorm/beta/Assign"
  input: "^resnet_v1_101/block3/unit_12/bottleneck_v1/conv3/BatchNorm/gamma/Assign"
  input: "^resnet_v1_101/block3/unit_12/bottleneck_v1/conv3/BatchNorm/moving_mean/Assign"
  input: "^resnet_v1_101/block3/unit_12/bottleneck_v1/conv3/BatchNorm/moving_variance/Assign"
  input: "^resnet_v1_101/block3/unit_12/bottleneck_v1/conv3/weights/Assign"
  input: "^resnet_v1_101/block3/unit_13/bottleneck_v1/conv1/BatchNorm/beta/Assign"
  input: "^resnet_v1_101/block3/unit_13/bottleneck_v1/conv1/BatchNorm/gamma/Assign"
  input: "^resnet_v1_101/block3/unit_13/bottleneck_v1/conv1/BatchNorm/moving_mean/Assign"
  input: "^resnet_v1_101/block3/unit_13/bottleneck_v1/conv1/BatchNorm/moving_variance/Assign"
  input: "^resnet_v1_101/block3/unit_13/bottleneck_v1/conv1/weights/Assign"
  input: "^resnet_v1_101/block3/unit_13/bottleneck_v1/conv2/BatchNorm/beta/Assign"
  input: "^resnet_v1_101/block3/unit_13/bottleneck_v1/conv2/BatchNorm/gamma/Assign"
  input: "^resnet_v1_101/block3/unit_13/bottleneck_v1/conv2/BatchNorm/moving_mean/Assign"
  input: "^resnet_v1_101/block3/unit_13/bottleneck_v1/conv2/BatchNorm/moving_variance/Assign"
  input: "^resnet_v1_101/block3/unit_13/bottleneck_v1/conv2/weights/Assign"
  input: "^resnet_v1_101/block3/unit_13/bottleneck_v1/conv3/BatchNorm/beta/Assign"
  input: "^resnet_v1_101/block3/unit_13/bottleneck_v1/conv3/BatchNorm/gamma/Assign"
  input: "^resnet_v1_101/block3/unit_13/bottleneck_v1/conv3/BatchNorm/moving_mean/Assign"
  input: "^resnet_v1_101/block3/unit_13/bottleneck_v1/conv3/BatchNorm/moving_variance/Assign"
  input: "^resnet_v1_101/block3/unit_13/bottleneck_v1/conv3/weights/Assign"
  input: "^resnet_v1_101/block3/unit_14/bottleneck_v1/conv1/BatchNorm/beta/Assign"
  input: "^resnet_v1_101/block3/unit_14/bottleneck_v1/conv1/BatchNorm/gamma/Assign"
  input: "^resnet_v1_101/block3/unit_14/bottleneck_v1/conv1/BatchNorm/moving_mean/Assign"
  input: "^resnet_v1_101/block3/unit_14/bottleneck_v1/conv1/BatchNorm/moving_variance/Assign"
  input: "^resnet_v1_101/block3/unit_14/bottleneck_v1/conv1/weights/Assign"
  input: "^resnet_v1_101/block3/unit_14/bottleneck_v1/conv2/BatchNorm/beta/Assign"
  input: "^resnet_v1_101/block3/unit_14/bottleneck_v1/conv2/BatchNorm/gamma/Assign"
  input: "^resnet_v1_101/block3/unit_14/bottleneck_v1/conv2/BatchNorm/moving_mean/Assign"
  input: "^resnet_v1_101/block3/unit_14/bottleneck_v1/conv2/BatchNorm/moving_variance/Assign"
  input: "^resnet_v1_101/block3/unit_14/bottleneck_v1/conv2/weights/Assign"
  input: "^resnet_v1_101/block3/unit_14/bottleneck_v1/conv3/BatchNorm/beta/Assign"
  input: "^resnet_v1_101/block3/unit_14/bottleneck_v1/conv3/BatchNorm/gamma/Assign"
  input: "^resnet_v1_101/block3/unit_14/bottleneck_v1/conv3/BatchNorm/moving_mean/Assign"
  input: "^resnet_v1_101/block3/unit_14/bottleneck_v1/conv3/BatchNorm/moving_variance/Assign"
  input: "^resnet_v1_101/block3/unit_14/bottleneck_v1/conv3/weights/Assign"
  input: "^resnet_v1_101/block3/unit_15/bottleneck_v1/conv1/BatchNorm/beta/Assign"
  input: "^resnet_v1_101/block3/unit_15/bottleneck_v1/conv1/BatchNorm/gamma/Assign"
  input: "^resnet_v1_101/block3/unit_15/bottleneck_v1/conv1/BatchNorm/moving_mean/Assign"
  input: "^resnet_v1_101/block3/unit_15/bottleneck_v1/conv1/BatchNorm/moving_variance/Assign"
  input: "^resnet_v1_101/block3/unit_15/bottleneck_v1/conv1/weights/Assign"
  input: "^resnet_v1_101/block3/unit_15/bottleneck_v1/conv2/BatchNorm/beta/Assign"
  input: "^resnet_v1_101/block3/unit_15/bottleneck_v1/conv2/BatchNorm/gamma/Assign"
  input: "^resnet_v1_101/block3/unit_15/bottleneck_v1/conv2/BatchNorm/moving_mean/Assign"
  input: "^resnet_v1_101/block3/unit_15/bottleneck_v1/conv2/BatchNorm/moving_variance/Assign"
  input: "^resnet_v1_101/block3/unit_15/bottleneck_v1/conv2/weights/Assign"
  input: "^resnet_v1_101/block3/unit_15/bottleneck_v1/conv3/BatchNorm/beta/Assign"
  input: "^resnet_v1_101/block3/unit_15/bottleneck_v1/conv3/BatchNorm/gamma/Assign"
  input: "^resnet_v1_101/block3/unit_15/bottleneck_v1/conv3/BatchNorm/moving_mean/Assign"
  input: "^resnet_v1_101/block3/unit_15/bottleneck_v1/conv3/BatchNorm/moving_variance/Assign"
  input: "^resnet_v1_101/block3/unit_15/bottleneck_v1/conv3/weights/Assign"
  input: "^resnet_v1_101/block3/unit_16/bottleneck_v1/conv1/BatchNorm/beta/Assign"
  input: "^resnet_v1_101/block3/unit_16/bottleneck_v1/conv1/BatchNorm/gamma/Assign"
  input: "^resnet_v1_101/block3/unit_16/bottleneck_v1/conv1/BatchNorm/moving_mean/Assign"
  input: "^resnet_v1_101/block3/unit_16/bottleneck_v1/conv1/BatchNorm/moving_variance/Assign"
  input: "^resnet_v1_101/block3/unit_16/bottleneck_v1/conv1/weights/Assign"
  input: "^resnet_v1_101/block3/unit_16/bottleneck_v1/conv2/BatchNorm/beta/Assign"
  input: "^resnet_v1_101/block3/unit_16/bottleneck_v1/conv2/BatchNorm/gamma/Assign"
  input: "^resnet_v1_101/block3/unit_16/bottleneck_v1/conv2/BatchNorm/moving_mean/Assign"
  input: "^resnet_v1_101/block3/unit_16/bottleneck_v1/conv2/BatchNorm/moving_variance/Assign"
  input: "^resnet_v1_101/block3/unit_16/bottleneck_v1/conv2/weights/Assign"
  input: "^resnet_v1_101/block3/unit_16/bottleneck_v1/conv3/BatchNorm/beta/Assign"
  input: "^resnet_v1_101/block3/unit_16/bottleneck_v1/conv3/BatchNorm/gamma/Assign"
  input: "^resnet_v1_101/block3/unit_16/bottleneck_v1/conv3/BatchNorm/moving_mean/Assign"
  input: "^resnet_v1_101/block3/unit_16/bottleneck_v1/conv3/BatchNorm/moving_variance/Assign"
  input: "^resnet_v1_101/block3/unit_16/bottleneck_v1/conv3/weights/Assign"
  input: "^resnet_v1_101/block3/unit_17/bottleneck_v1/conv1/BatchNorm/beta/Assign"
  input: "^resnet_v1_101/block3/unit_17/bottleneck_v1/conv1/BatchNorm/gamma/Assign"
  input: "^resnet_v1_101/block3/unit_17/bottleneck_v1/conv1/BatchNorm/moving_mean/Assign"
  input: "^resnet_v1_101/block3/unit_17/bottleneck_v1/conv1/BatchNorm/moving_variance/Assign"
  input: "^resnet_v1_101/block3/unit_17/bottleneck_v1/conv1/weights/Assign"
  input: "^resnet_v1_101/block3/unit_17/bottleneck_v1/conv2/BatchNorm/beta/Assign"
  input: "^resnet_v1_101/block3/unit_17/bottleneck_v1/conv2/BatchNorm/gamma/Assign"
  input: "^resnet_v1_101/block3/unit_17/bottleneck_v1/conv2/BatchNorm/moving_mean/Assign"
  input: "^resnet_v1_101/block3/unit_17/bottleneck_v1/conv2/BatchNorm/moving_variance/Assign"
  input: "^resnet_v1_101/block3/unit_17/bottleneck_v1/conv2/weights/Assign"
  input: "^resnet_v1_101/block3/unit_17/bottleneck_v1/conv3/BatchNorm/beta/Assign"
  input: "^resnet_v1_101/block3/unit_17/bottleneck_v1/conv3/BatchNorm/gamma/Assign"
  input: "^resnet_v1_101/block3/unit_17/bottleneck_v1/conv3/BatchNorm/moving_mean/Assign"
  input: "^resnet_v1_101/block3/unit_17/bottleneck_v1/conv3/BatchNorm/moving_variance/Assign"
  input: "^resnet_v1_101/block3/unit_17/bottleneck_v1/conv3/weights/Assign"
  input: "^resnet_v1_101/block3/unit_18/bottleneck_v1/conv1/BatchNorm/beta/Assign"
  input: "^resnet_v1_101/block3/unit_18/bottleneck_v1/conv1/BatchNorm/gamma/Assign"
  input: "^resnet_v1_101/block3/unit_18/bottleneck_v1/conv1/BatchNorm/moving_mean/Assign"
  input: "^resnet_v1_101/block3/unit_18/bottleneck_v1/conv1/BatchNorm/moving_variance/Assign"
  input: "^resnet_v1_101/block3/unit_18/bottleneck_v1/conv1/weights/Assign"
  input: "^resnet_v1_101/block3/unit_18/bottleneck_v1/conv2/BatchNorm/beta/Assign"
  input: "^resnet_v1_101/block3/unit_18/bottleneck_v1/conv2/BatchNorm/gamma/Assign"
  input: "^resnet_v1_101/block3/unit_18/bottleneck_v1/conv2/BatchNorm/moving_mean/Assign"
  input: "^resnet_v1_101/block3/unit_18/bottleneck_v1/conv2/BatchNorm/moving_variance/Assign"
  input: "^resnet_v1_101/block3/unit_18/bottleneck_v1/conv2/weights/Assign"
  input: "^resnet_v1_101/block3/unit_18/bottleneck_v1/conv3/BatchNorm/beta/Assign"
  input: "^resnet_v1_101/block3/unit_18/bottleneck_v1/conv3/BatchNorm/gamma/Assign"
  input: "^resnet_v1_101/block3/unit_18/bottleneck_v1/conv3/BatchNorm/moving_mean/Assign"
  input: "^resnet_v1_101/block3/unit_18/bottleneck_v1/conv3/BatchNorm/moving_variance/Assign"
  input: "^resnet_v1_101/block3/unit_18/bottleneck_v1/conv3/weights/Assign"
  input: "^resnet_v1_101/block3/unit_19/bottleneck_v1/conv1/BatchNorm/beta/Assign"
  input: "^resnet_v1_101/block3/unit_19/bottleneck_v1/conv1/BatchNorm/gamma/Assign"
  input: "^resnet_v1_101/block3/unit_19/bottleneck_v1/conv1/BatchNorm/moving_mean/Assign"
  input: "^resnet_v1_101/block3/unit_19/bottleneck_v1/conv1/BatchNorm/moving_variance/Assign"
  input: "^resnet_v1_101/block3/unit_19/bottleneck_v1/conv1/weights/Assign"
  input: "^resnet_v1_101/block3/unit_19/bottleneck_v1/conv2/BatchNorm/beta/Assign"
  input: "^resnet_v1_101/block3/unit_19/bottleneck_v1/conv2/BatchNorm/gamma/Assign"
  input: "^resnet_v1_101/block3/unit_19/bottleneck_v1/conv2/BatchNorm/moving_mean/Assign"
  input: "^resnet_v1_101/block3/unit_19/bottleneck_v1/conv2/BatchNorm/moving_variance/Assign"
  input: "^resnet_v1_101/block3/unit_19/bottleneck_v1/conv2/weights/Assign"
  input: "^resnet_v1_101/block3/unit_19/bottleneck_v1/conv3/BatchNorm/beta/Assign"
  input: "^resnet_v1_101/block3/unit_19/bottleneck_v1/conv3/BatchNorm/gamma/Assign"
  input: "^resnet_v1_101/block3/unit_19/bottleneck_v1/conv3/BatchNorm/moving_mean/Assign"
  input: "^resnet_v1_101/block3/unit_19/bottleneck_v1/conv3/BatchNorm/moving_variance/Assign"
  input: "^resnet_v1_101/block3/unit_19/bottleneck_v1/conv3/weights/Assign"
  input: "^resnet_v1_101/block3/unit_2/bottleneck_v1/conv1/BatchNorm/beta/Assign"
  input: "^resnet_v1_101/block3/unit_2/bottleneck_v1/conv1/BatchNorm/gamma/Assign"
  input: "^resnet_v1_101/block3/unit_2/bottleneck_v1/conv1/BatchNorm/moving_mean/Assign"
  input: "^resnet_v1_101/block3/unit_2/bottleneck_v1/conv1/BatchNorm/moving_variance/Assign"
  input: "^resnet_v1_101/block3/unit_2/bottleneck_v1/conv1/weights/Assign"
  input: "^resnet_v1_101/block3/unit_2/bottleneck_v1/conv2/BatchNorm/beta/Assign"
  input: "^resnet_v1_101/block3/unit_2/bottleneck_v1/conv2/BatchNorm/gamma/Assign"
  input: "^resnet_v1_101/block3/unit_2/bottleneck_v1/conv2/BatchNorm/moving_mean/Assign"
  input: "^resnet_v1_101/block3/unit_2/bottleneck_v1/conv2/BatchNorm/moving_variance/Assign"
  input: "^resnet_v1_101/block3/unit_2/bottleneck_v1/conv2/weights/Assign"
  input: "^resnet_v1_101/block3/unit_2/bottleneck_v1/conv3/BatchNorm/beta/Assign"
  input: "^resnet_v1_101/block3/unit_2/bottleneck_v1/conv3/BatchNorm/gamma/Assign"
  input: "^resnet_v1_101/block3/unit_2/bottleneck_v1/conv3/BatchNorm/moving_mean/Assign"
  input: "^resnet_v1_101/block3/unit_2/bottleneck_v1/conv3/BatchNorm/moving_variance/Assign"
  input: "^resnet_v1_101/block3/unit_2/bottleneck_v1/conv3/weights/Assign"
  input: "^resnet_v1_101/block3/unit_20/bottleneck_v1/conv1/BatchNorm/beta/Assign"
  input: "^resnet_v1_101/block3/unit_20/bottleneck_v1/conv1/BatchNorm/gamma/Assign"
  input: "^resnet_v1_101/block3/unit_20/bottleneck_v1/conv1/BatchNorm/moving_mean/Assign"
  input: "^resnet_v1_101/block3/unit_20/bottleneck_v1/conv1/BatchNorm/moving_variance/Assign"
  input: "^resnet_v1_101/block3/unit_20/bottleneck_v1/conv1/weights/Assign"
  input: "^resnet_v1_101/block3/unit_20/bottleneck_v1/conv2/BatchNorm/beta/Assign"
  input: "^resnet_v1_101/block3/unit_20/bottleneck_v1/conv2/BatchNorm/gamma/Assign"
  input: "^resnet_v1_101/block3/unit_20/bottleneck_v1/conv2/BatchNorm/moving_mean/Assign"
  input: "^resnet_v1_101/block3/unit_20/bottleneck_v1/conv2/BatchNorm/moving_variance/Assign"
  input: "^resnet_v1_101/block3/unit_20/bottleneck_v1/conv2/weights/Assign"
  input: "^resnet_v1_101/block3/unit_20/bottleneck_v1/conv3/BatchNorm/beta/Assign"
  input: "^resnet_v1_101/block3/unit_20/bottleneck_v1/conv3/BatchNorm/gamma/Assign"
  input: "^resnet_v1_101/block3/unit_20/bottleneck_v1/conv3/BatchNorm/moving_mean/Assign"
  input: "^resnet_v1_101/block3/unit_20/bottleneck_v1/conv3/BatchNorm/moving_variance/Assign"
  input: "^resnet_v1_101/block3/unit_20/bottleneck_v1/conv3/weights/Assign"
  input: "^resnet_v1_101/block3/unit_21/bottleneck_v1/conv1/BatchNorm/beta/Assign"
  input: "^resnet_v1_101/block3/unit_21/bottleneck_v1/conv1/BatchNorm/gamma/Assign"
  input: "^resnet_v1_101/block3/unit_21/bottleneck_v1/conv1/BatchNorm/moving_mean/Assign"
  input: "^resnet_v1_101/block3/unit_21/bottleneck_v1/conv1/BatchNorm/moving_variance/Assign"
  input: "^resnet_v1_101/block3/unit_21/bottleneck_v1/conv1/weights/Assign"
  input: "^resnet_v1_101/block3/unit_21/bottleneck_v1/conv2/BatchNorm/beta/Assign"
  input: "^resnet_v1_101/block3/unit_21/bottleneck_v1/conv2/BatchNorm/gamma/Assign"
  input: "^resnet_v1_101/block3/unit_21/bottleneck_v1/conv2/BatchNorm/moving_mean/Assign"
  input: "^resnet_v1_101/block3/unit_21/bottleneck_v1/conv2/BatchNorm/moving_variance/Assign"
  input: "^resnet_v1_101/block3/unit_21/bottleneck_v1/conv2/weights/Assign"
  input: "^resnet_v1_101/block3/unit_21/bottleneck_v1/conv3/BatchNorm/beta/Assign"
  input: "^resnet_v1_101/block3/unit_21/bottleneck_v1/conv3/BatchNorm/gamma/Assign"
  input: "^resnet_v1_101/block3/unit_21/bottleneck_v1/conv3/BatchNorm/moving_mean/Assign"
  input: "^resnet_v1_101/block3/unit_21/bottleneck_v1/conv3/BatchNorm/moving_variance/Assign"
  input: "^resnet_v1_101/block3/unit_21/bottleneck_v1/conv3/weights/Assign"
  input: "^resnet_v1_101/block3/unit_22/bottleneck_v1/conv1/BatchNorm/beta/Assign"
  input: "^resnet_v1_101/block3/unit_22/bottleneck_v1/conv1/BatchNorm/gamma/Assign"
  input: "^resnet_v1_101/block3/unit_22/bottleneck_v1/conv1/BatchNorm/moving_mean/Assign"
  input: "^resnet_v1_101/block3/unit_22/bottleneck_v1/conv1/BatchNorm/moving_variance/Assign"
  input: "^resnet_v1_101/block3/unit_22/bottleneck_v1/conv1/weights/Assign"
  input: "^resnet_v1_101/block3/unit_22/bottleneck_v1/conv2/BatchNorm/beta/Assign"
  input: "^resnet_v1_101/block3/unit_22/bottleneck_v1/conv2/BatchNorm/gamma/Assign"
  input: "^resnet_v1_101/block3/unit_22/bottleneck_v1/conv2/BatchNorm/moving_mean/Assign"
  input: "^resnet_v1_101/block3/unit_22/bottleneck_v1/conv2/BatchNorm/moving_variance/Assign"
  input: "^resnet_v1_101/block3/unit_22/bottleneck_v1/conv2/weights/Assign"
  input: "^resnet_v1_101/block3/unit_22/bottleneck_v1/conv3/BatchNorm/beta/Assign"
  input: "^resnet_v1_101/block3/unit_22/bottleneck_v1/conv3/BatchNorm/gamma/Assign"
  input: "^resnet_v1_101/block3/unit_22/bottleneck_v1/conv3/BatchNorm/moving_mean/Assign"
  input: "^resnet_v1_101/block3/unit_22/bottleneck_v1/conv3/BatchNorm/moving_variance/Assign"
  input: "^resnet_v1_101/block3/unit_22/bottleneck_v1/conv3/weights/Assign"
  input: "^resnet_v1_101/block3/unit_23/bottleneck_v1/conv1/BatchNorm/beta/Assign"
  input: "^resnet_v1_101/block3/unit_23/bottleneck_v1/conv1/BatchNorm/gamma/Assign"
  input: "^resnet_v1_101/block3/unit_23/bottleneck_v1/conv1/BatchNorm/moving_mean/Assign"
  input: "^resnet_v1_101/block3/unit_23/bottleneck_v1/conv1/BatchNorm/moving_variance/Assign"
  input: "^resnet_v1_101/block3/unit_23/bottleneck_v1/conv1/weights/Assign"
  input: "^resnet_v1_101/block3/unit_23/bottleneck_v1/conv2/BatchNorm/beta/Assign"
  input: "^resnet_v1_101/block3/unit_23/bottleneck_v1/conv2/BatchNorm/gamma/Assign"
  input: "^resnet_v1_101/block3/unit_23/bottleneck_v1/conv2/BatchNorm/moving_mean/Assign"
  input: "^resnet_v1_101/block3/unit_23/bottleneck_v1/conv2/BatchNorm/moving_variance/Assign"
  input: "^resnet_v1_101/block3/unit_23/bottleneck_v1/conv2/weights/Assign"
  input: "^resnet_v1_101/block3/unit_23/bottleneck_v1/conv3/BatchNorm/beta/Assign"
  input: "^resnet_v1_101/block3/unit_23/bottleneck_v1/conv3/BatchNorm/gamma/Assign"
  input: "^resnet_v1_101/block3/unit_23/bottleneck_v1/conv3/BatchNorm/moving_mean/Assign"
  input: "^resnet_v1_101/block3/unit_23/bottleneck_v1/conv3/BatchNorm/moving_variance/Assign"
  input: "^resnet_v1_101/block3/unit_23/bottleneck_v1/conv3/weights/Assign"
  input: "^resnet_v1_101/block3/unit_3/bottleneck_v1/conv1/BatchNorm/beta/Assign"
  input: "^resnet_v1_101/block3/unit_3/bottleneck_v1/conv1/BatchNorm/gamma/Assign"
  input: "^resnet_v1_101/block3/unit_3/bottleneck_v1/conv1/BatchNorm/moving_mean/Assign"
  input: "^resnet_v1_101/block3/unit_3/bottleneck_v1/conv1/BatchNorm/moving_variance/Assign"
  input: "^resnet_v1_101/block3/unit_3/bottleneck_v1/conv1/weights/Assign"
  input: "^resnet_v1_101/block3/unit_3/bottleneck_v1/conv2/BatchNorm/beta/Assign"
  input: "^resnet_v1_101/block3/unit_3/bottleneck_v1/conv2/BatchNorm/gamma/Assign"
  input: "^resnet_v1_101/block3/unit_3/bottleneck_v1/conv2/BatchNorm/moving_mean/Assign"
  input: "^resnet_v1_101/block3/unit_3/bottleneck_v1/conv2/BatchNorm/moving_variance/Assign"
  input: "^resnet_v1_101/block3/unit_3/bottleneck_v1/conv2/weights/Assign"
  input: "^resnet_v1_101/block3/unit_3/bottleneck_v1/conv3/BatchNorm/beta/Assign"
  input: "^resnet_v1_101/block3/unit_3/bottleneck_v1/conv3/BatchNorm/gamma/Assign"
  input: "^resnet_v1_101/block3/unit_3/bottleneck_v1/conv3/BatchNorm/moving_mean/Assign"
  input: "^resnet_v1_101/block3/unit_3/bottleneck_v1/conv3/BatchNorm/moving_variance/Assign"
  input: "^resnet_v1_101/block3/unit_3/bottleneck_v1/conv3/weights/Assign"
  input: "^resnet_v1_101/block3/unit_4/bottleneck_v1/conv1/BatchNorm/beta/Assign"
  input: "^resnet_v1_101/block3/unit_4/bottleneck_v1/conv1/BatchNorm/gamma/Assign"
  input: "^resnet_v1_101/block3/unit_4/bottleneck_v1/conv1/BatchNorm/moving_mean/Assign"
  input: "^resnet_v1_101/block3/unit_4/bottleneck_v1/conv1/BatchNorm/moving_variance/Assign"
  input: "^resnet_v1_101/block3/unit_4/bottleneck_v1/conv1/weights/Assign"
  input: "^resnet_v1_101/block3/unit_4/bottleneck_v1/conv2/BatchNorm/beta/Assign"
  input: "^resnet_v1_101/block3/unit_4/bottleneck_v1/conv2/BatchNorm/gamma/Assign"
  input: "^resnet_v1_101/block3/unit_4/bottleneck_v1/conv2/BatchNorm/moving_mean/Assign"
  input: "^resnet_v1_101/block3/unit_4/bottleneck_v1/conv2/BatchNorm/moving_variance/Assign"
  input: "^resnet_v1_101/block3/unit_4/bottleneck_v1/conv2/weights/Assign"
  input: "^resnet_v1_101/block3/unit_4/bottleneck_v1/conv3/BatchNorm/beta/Assign"
  input: "^resnet_v1_101/block3/unit_4/bottleneck_v1/conv3/BatchNorm/gamma/Assign"
  input: "^resnet_v1_101/block3/unit_4/bottleneck_v1/conv3/BatchNorm/moving_mean/Assign"
  input: "^resnet_v1_101/block3/unit_4/bottleneck_v1/conv3/BatchNorm/moving_variance/Assign"
  input: "^resnet_v1_101/block3/unit_4/bottleneck_v1/conv3/weights/Assign"
  input: "^resnet_v1_101/block3/unit_5/bottleneck_v1/conv1/BatchNorm/beta/Assign"
  input: "^resnet_v1_101/block3/unit_5/bottleneck_v1/conv1/BatchNorm/gamma/Assign"
  input: "^resnet_v1_101/block3/unit_5/bottleneck_v1/conv1/BatchNorm/moving_mean/Assign"
  input: "^resnet_v1_101/block3/unit_5/bottleneck_v1/conv1/BatchNorm/moving_variance/Assign"
  input: "^resnet_v1_101/block3/unit_5/bottleneck_v1/conv1/weights/Assign"
  input: "^resnet_v1_101/block3/unit_5/bottleneck_v1/conv2/BatchNorm/beta/Assign"
  input: "^resnet_v1_101/block3/unit_5/bottleneck_v1/conv2/BatchNorm/gamma/Assign"
  input: "^resnet_v1_101/block3/unit_5/bottleneck_v1/conv2/BatchNorm/moving_mean/Assign"
  input: "^resnet_v1_101/block3/unit_5/bottleneck_v1/conv2/BatchNorm/moving_variance/Assign"
  input: "^resnet_v1_101/block3/unit_5/bottleneck_v1/conv2/weights/Assign"
  input: "^resnet_v1_101/block3/unit_5/bottleneck_v1/conv3/BatchNorm/beta/Assign"
  input: "^resnet_v1_101/block3/unit_5/bottleneck_v1/conv3/BatchNorm/gamma/Assign"
  input: "^resnet_v1_101/block3/unit_5/bottleneck_v1/conv3/BatchNorm/moving_mean/Assign"
  input: "^resnet_v1_101/block3/unit_5/bottleneck_v1/conv3/BatchNorm/moving_variance/Assign"
  input: "^resnet_v1_101/block3/unit_5/bottleneck_v1/conv3/weights/Assign"
  input: "^resnet_v1_101/block3/unit_6/bottleneck_v1/conv1/BatchNorm/beta/Assign"
  input: "^resnet_v1_101/block3/unit_6/bottleneck_v1/conv1/BatchNorm/gamma/Assign"
  input: "^resnet_v1_101/block3/unit_6/bottleneck_v1/conv1/BatchNorm/moving_mean/Assign"
  input: "^resnet_v1_101/block3/unit_6/bottleneck_v1/conv1/BatchNorm/moving_variance/Assign"
  input: "^resnet_v1_101/block3/unit_6/bottleneck_v1/conv1/weights/Assign"
  input: "^resnet_v1_101/block3/unit_6/bottleneck_v1/conv2/BatchNorm/beta/Assign"
  input: "^resnet_v1_101/block3/unit_6/bottleneck_v1/conv2/BatchNorm/gamma/Assign"
  input: "^resnet_v1_101/block3/unit_6/bottleneck_v1/conv2/BatchNorm/moving_mean/Assign"
  input: "^resnet_v1_101/block3/unit_6/bottleneck_v1/conv2/BatchNorm/moving_variance/Assign"
  input: "^resnet_v1_101/block3/unit_6/bottleneck_v1/conv2/weights/Assign"
  input: "^resnet_v1_101/block3/unit_6/bottleneck_v1/conv3/BatchNorm/beta/Assign"
  input: "^resnet_v1_101/block3/unit_6/bottleneck_v1/conv3/BatchNorm/gamma/Assign"
  input: "^resnet_v1_101/block3/unit_6/bottleneck_v1/conv3/BatchNorm/moving_mean/Assign"
  input: "^resnet_v1_101/block3/unit_6/bottleneck_v1/conv3/BatchNorm/moving_variance/Assign"
  input: "^resnet_v1_101/block3/unit_6/bottleneck_v1/conv3/weights/Assign"
  input: "^resnet_v1_101/block3/unit_7/bottleneck_v1/conv1/BatchNorm/beta/Assign"
  input: "^resnet_v1_101/block3/unit_7/bottleneck_v1/conv1/BatchNorm/gamma/Assign"
  input: "^resnet_v1_101/block3/unit_7/bottleneck_v1/conv1/BatchNorm/moving_mean/Assign"
  input: "^resnet_v1_101/block3/unit_7/bottleneck_v1/conv1/BatchNorm/moving_variance/Assign"
  input: "^resnet_v1_101/block3/unit_7/bottleneck_v1/conv1/weights/Assign"
  input: "^resnet_v1_101/block3/unit_7/bottleneck_v1/conv2/BatchNorm/beta/Assign"
  input: "^resnet_v1_101/block3/unit_7/bottleneck_v1/conv2/BatchNorm/gamma/Assign"
  input: "^resnet_v1_101/block3/unit_7/bottleneck_v1/conv2/BatchNorm/moving_mean/Assign"
  input: "^resnet_v1_101/block3/unit_7/bottleneck_v1/conv2/BatchNorm/moving_variance/Assign"
  input: "^resnet_v1_101/block3/unit_7/bottleneck_v1/conv2/weights/Assign"
  input: "^resnet_v1_101/block3/unit_7/bottleneck_v1/conv3/BatchNorm/beta/Assign"
  input: "^resnet_v1_101/block3/unit_7/bottleneck_v1/conv3/BatchNorm/gamma/Assign"
  input: "^resnet_v1_101/block3/unit_7/bottleneck_v1/conv3/BatchNorm/moving_mean/Assign"
  input: "^resnet_v1_101/block3/unit_7/bottleneck_v1/conv3/BatchNorm/moving_variance/Assign"
  input: "^resnet_v1_101/block3/unit_7/bottleneck_v1/conv3/weights/Assign"
  input: "^resnet_v1_101/block3/unit_8/bottleneck_v1/conv1/BatchNorm/beta/Assign"
  input: "^resnet_v1_101/block3/unit_8/bottleneck_v1/conv1/BatchNorm/gamma/Assign"
  input: "^resnet_v1_101/block3/unit_8/bottleneck_v1/conv1/BatchNorm/moving_mean/Assign"
  input: "^resnet_v1_101/block3/unit_8/bottleneck_v1/conv1/BatchNorm/moving_variance/Assign"
  input: "^resnet_v1_101/block3/unit_8/bottleneck_v1/conv1/weights/Assign"
  input: "^resnet_v1_101/block3/unit_8/bottleneck_v1/conv2/BatchNorm/beta/Assign"
  input: "^resnet_v1_101/block3/unit_8/bottleneck_v1/conv2/BatchNorm/gamma/Assign"
  input: "^resnet_v1_101/block3/unit_8/bottleneck_v1/conv2/BatchNorm/moving_mean/Assign"
  input: "^resnet_v1_101/block3/unit_8/bottleneck_v1/conv2/BatchNorm/moving_variance/Assign"
  input: "^resnet_v1_101/block3/unit_8/bottleneck_v1/conv2/weights/Assign"
  input: "^resnet_v1_101/block3/unit_8/bottleneck_v1/conv3/BatchNorm/beta/Assign"
  input: "^resnet_v1_101/block3/unit_8/bottleneck_v1/conv3/BatchNorm/gamma/Assign"
  input: "^resnet_v1_101/block3/unit_8/bottleneck_v1/conv3/BatchNorm/moving_mean/Assign"
  input: "^resnet_v1_101/block3/unit_8/bottleneck_v1/conv3/BatchNorm/moving_variance/Assign"
  input: "^resnet_v1_101/block3/unit_8/bottleneck_v1/conv3/weights/Assign"
  input: "^resnet_v1_101/block3/unit_9/bottleneck_v1/conv1/BatchNorm/beta/Assign"
  input: "^resnet_v1_101/block3/unit_9/bottleneck_v1/conv1/BatchNorm/gamma/Assign"
  input: "^resnet_v1_101/block3/unit_9/bottleneck_v1/conv1/BatchNorm/moving_mean/Assign"
  input: "^resnet_v1_101/block3/unit_9/bottleneck_v1/conv1/BatchNorm/moving_variance/Assign"
  input: "^resnet_v1_101/block3/unit_9/bottleneck_v1/conv1/weights/Assign"
  input: "^resnet_v1_101/block3/unit_9/bottleneck_v1/conv2/BatchNorm/beta/Assign"
  input: "^resnet_v1_101/block3/unit_9/bottleneck_v1/conv2/BatchNorm/gamma/Assign"
  input: "^resnet_v1_101/block3/unit_9/bottleneck_v1/conv2/BatchNorm/moving_mean/Assign"
  input: "^resnet_v1_101/block3/unit_9/bottleneck_v1/conv2/BatchNorm/moving_variance/Assign"
  input: "^resnet_v1_101/block3/unit_9/bottleneck_v1/conv2/weights/Assign"
  input: "^resnet_v1_101/block3/unit_9/bottleneck_v1/conv3/BatchNorm/beta/Assign"
  input: "^resnet_v1_101/block3/unit_9/bottleneck_v1/conv3/BatchNorm/gamma/Assign"
  input: "^resnet_v1_101/block3/unit_9/bottleneck_v1/conv3/BatchNorm/moving_mean/Assign"
  input: "^resnet_v1_101/block3/unit_9/bottleneck_v1/conv3/BatchNorm/moving_variance/Assign"
  input: "^resnet_v1_101/block3/unit_9/bottleneck_v1/conv3/weights/Assign"
  input: "^resnet_v1_101/block4/unit_1/bottleneck_v1/conv1/BatchNorm/beta/Assign"
  input: "^resnet_v1_101/block4/unit_1/bottleneck_v1/conv1/BatchNorm/gamma/Assign"
  input: "^resnet_v1_101/block4/unit_1/bottleneck_v1/conv1/BatchNorm/moving_mean/Assign"
  input: "^resnet_v1_101/block4/unit_1/bottleneck_v1/conv1/BatchNorm/moving_variance/Assign"
  input: "^resnet_v1_101/block4/unit_1/bottleneck_v1/conv1/weights/Assign"
  input: "^resnet_v1_101/block4/unit_1/bottleneck_v1/conv2/BatchNorm/beta/Assign"
  input: "^resnet_v1_101/block4/unit_1/bottleneck_v1/conv2/BatchNorm/gamma/Assign"
  input: "^resnet_v1_101/block4/unit_1/bottleneck_v1/conv2/BatchNorm/moving_mean/Assign"
  input: "^resnet_v1_101/block4/unit_1/bottleneck_v1/conv2/BatchNorm/moving_variance/Assign"
  input: "^resnet_v1_101/block4/unit_1/bottleneck_v1/conv2/weights/Assign"
  input: "^resnet_v1_101/block4/unit_1/bottleneck_v1/conv3/BatchNorm/beta/Assign"
  input: "^resnet_v1_101/block4/unit_1/bottleneck_v1/conv3/BatchNorm/gamma/Assign"
  input: "^resnet_v1_101/block4/unit_1/bottleneck_v1/conv3/BatchNorm/moving_mean/Assign"
  input: "^resnet_v1_101/block4/unit_1/bottleneck_v1/conv3/BatchNorm/moving_variance/Assign"
  input: "^resnet_v1_101/block4/unit_1/bottleneck_v1/conv3/weights/Assign"
  input: "^resnet_v1_101/block4/unit_1/bottleneck_v1/shortcut/BatchNorm/beta/Assign"
  input: "^resnet_v1_101/block4/unit_1/bottleneck_v1/shortcut/BatchNorm/gamma/Assign"
  input: "^resnet_v1_101/block4/unit_1/bottleneck_v1/shortcut/BatchNorm/moving_mean/Assign"
  input: "^resnet_v1_101/block4/unit_1/bottleneck_v1/shortcut/BatchNorm/moving_variance/Assign"
  input: "^resnet_v1_101/block4/unit_1/bottleneck_v1/shortcut/weights/Assign"
  input: "^resnet_v1_101/block4/unit_2/bottleneck_v1/conv1/BatchNorm/beta/Assign"
  input: "^resnet_v1_101/block4/unit_2/bottleneck_v1/conv1/BatchNorm/gamma/Assign"
  input: "^resnet_v1_101/block4/unit_2/bottleneck_v1/conv1/BatchNorm/moving_mean/Assign"
  input: "^resnet_v1_101/block4/unit_2/bottleneck_v1/conv1/BatchNorm/moving_variance/Assign"
  input: "^resnet_v1_101/block4/unit_2/bottleneck_v1/conv1/weights/Assign"
  input: "^resnet_v1_101/block4/unit_2/bottleneck_v1/conv2/BatchNorm/beta/Assign"
  input: "^resnet_v1_101/block4/unit_2/bottleneck_v1/conv2/BatchNorm/gamma/Assign"
  input: "^resnet_v1_101/block4/unit_2/bottleneck_v1/conv2/BatchNorm/moving_mean/Assign"
  input: "^resnet_v1_101/block4/unit_2/bottleneck_v1/conv2/BatchNorm/moving_variance/Assign"
  input: "^resnet_v1_101/block4/unit_2/bottleneck_v1/conv2/weights/Assign"
  input: "^resnet_v1_101/block4/unit_2/bottleneck_v1/conv3/BatchNorm/beta/Assign"
  input: "^resnet_v1_101/block4/unit_2/bottleneck_v1/conv3/BatchNorm/gamma/Assign"
  input: "^resnet_v1_101/block4/unit_2/bottleneck_v1/conv3/BatchNorm/moving_mean/Assign"
  input: "^resnet_v1_101/block4/unit_2/bottleneck_v1/conv3/BatchNorm/moving_variance/Assign"
  input: "^resnet_v1_101/block4/unit_2/bottleneck_v1/conv3/weights/Assign"
  input: "^resnet_v1_101/block4/unit_3/bottleneck_v1/conv1/BatchNorm/beta/Assign"
  input: "^resnet_v1_101/block4/unit_3/bottleneck_v1/conv1/BatchNorm/gamma/Assign"
  input: "^resnet_v1_101/block4/unit_3/bottleneck_v1/conv1/BatchNorm/moving_mean/Assign"
  input: "^resnet_v1_101/block4/unit_3/bottleneck_v1/conv1/BatchNorm/moving_variance/Assign"
  input: "^resnet_v1_101/block4/unit_3/bottleneck_v1/conv1/weights/Assign"
  input: "^resnet_v1_101/block4/unit_3/bottleneck_v1/conv2/BatchNorm/beta/Assign"
  input: "^resnet_v1_101/block4/unit_3/bottleneck_v1/conv2/BatchNorm/gamma/Assign"
  input: "^resnet_v1_101/block4/unit_3/bottleneck_v1/conv2/BatchNorm/moving_mean/Assign"
  input: "^resnet_v1_101/block4/unit_3/bottleneck_v1/conv2/BatchNorm/moving_variance/Assign"
  input: "^resnet_v1_101/block4/unit_3/bottleneck_v1/conv2/weights/Assign"
  input: "^resnet_v1_101/block4/unit_3/bottleneck_v1/conv3/BatchNorm/beta/Assign"
  input: "^resnet_v1_101/block4/unit_3/bottleneck_v1/conv3/BatchNorm/gamma/Assign"
  input: "^resnet_v1_101/block4/unit_3/bottleneck_v1/conv3/BatchNorm/moving_mean/Assign"
  input: "^resnet_v1_101/block4/unit_3/bottleneck_v1/conv3/BatchNorm/moving_variance/Assign"
  input: "^resnet_v1_101/block4/unit_3/bottleneck_v1/conv3/weights/Assign"
  input: "^resnet_v1_101/conv1/BatchNorm/beta/Assign"
  input: "^resnet_v1_101/conv1/BatchNorm/gamma/Assign"
  input: "^resnet_v1_101/conv1/BatchNorm/moving_mean/Assign"
  input: "^resnet_v1_101/conv1/BatchNorm/moving_variance/Assign"
  input: "^resnet_v1_101/conv1/weights/Assign"
}
node {
  name: "init_1"
  op: "NoOp"
}
versions {
  producer: 134
}
